previous_generated_weights/weights_20250228_172137.npy (npy, 62848 bytes, 1 tensors)

array f8 [784, 10]
00000000: b6bf 642c 6b1f c03f 8748 4973 5db2 ed3f
00000010: 3ddc 974b 558f dc3f 4bcd aa07 3d48 ebbf
00000020: 49f9 ca3f 67bf f3bf 271c 3fb4 a4f4 e0bf
00000030: 7958 7fae 0e5a edbf 682e 10ff 8d7f c8bf
00000040: 9188 c505 11d1 e8bf 862f 384d 1445 ed3f
00000050: 3024 a57c 4045 d2bf 715f bef3 091c fe3f
00000060: 305c 2d04 6edb ddbf 3999 3e67 979a f9bf
00000070: 9cab 7f20 030c eb3f 7d7f b114 6453 f7bf
00000080: 0b71 576a a6b2 c63f d590 154a 0cfa ed3f
00000090: f916 1932 84b7 e73f 9a97 0c34 70f0 d93f
000000a0: 6a0d b324 4e5e e33f fa7c 1180 cfd2 fbbf
000000b0: 77ac dd17 1d5a c3bf 6842 b636 8497 ab3f
000000c0: b23f a5dd c09c f53f 80dc 3155 4758 5d3f
000000d0: 10ce 63e6 d1b7 fabf 81ce cbf4 87d2 e5bf
000000e0: abdd 689a 046f e4bf c2e2 75f0 468a ec3f
000000f0: dcd9 70c9 8fa0 b6bf 557b 82bc 5354 f2bf
00000100: 9b57 0080 c654 b83f 8ce1 bd6a b900 02c0
00000110: 2d66 cf9e d8b9 b9bf b002 690f 811c d03f
00000120: 8fc4 a464 72c2 f83f 911d 35ea 5752 f63f
00000130: 7820 7168 c929 dcbf 9f33 9e67 a8a4 d03f
00000140: 7d0b bc2a d087 e63f 45f3 f7dd 90f7 d13f
00000150: aa55 7871 6176 f73f 1957 60c9 1fab f2bf
00000160: 7693 c78a 859f ea3f 4e58 19dd ab59 0240
00000170: 3013 85c8 7376 a4bf e4be 1c2f faa1 bebf
00000180: d14d 07b8 8e6f e93f bece 4d43 a26f cabf
00000190: 7c9e c657 a268 c43f 6d87 6449 24d3 d83f
000001a0: 6e09 8211 b9b9 e23f fa1b 867c a4ad eb3f
000001b0: f317 b3f6 c508 d03f 59f4 26a2 3e94 f3bf
000001c0: f9fa 9f3a ec15 b83f 94a7 f22d a235 e7bf
000001d0: 31b9 4484 a9b4 dfbf 17b6 d4aa 4754 d23f
000001e0: 9228 9751 9b9a c2bf a4ae 21b4 be58 fa3f
000001f0: 0632 fe4a 020b c5bf 438b 810a 7abe 0040
00000200: b75b 9b0a 318f e73f 2032 2e27 0ddd e83f
00000210: 6b2d 395b 2f97 f33f f6e0 27b8 a647 e8bf
00000220: c827 1513 6784 e13f 1cd1 b37a 4317 e4bf
00000230: 17f3 9489 4d85 bdbf c7b7 30e4 a440 e1bf
00000240: a1d4 1f10 d45f f1bf 6379 d874 8fa7 de3f
00000250: 230e 2a4a 900b f6bf 6fdf 8fff 7b49 edbf
00000260: 737c 9429 9564 f2bf 50f9 fc61 9cc3 f03f
00000270: bbf6 e333 730b eb3f 5e86 329a ce75 d43f
00000280: 84ce b4ad bb69 e83f 7c8e bf84 84d4 f73f
00000290: 65ce c77e fda2 e3bf fad4 5b1b a00e ed3f
000002a0: 6139 8b58 bc62 01c0 fd0a 696d e0e2 f9bf
000002b0: 53dd 6fb0 02e5 f3bf be55 4e49 6a2f fabf
000002c0: 48b5 d9f0 bf72 d23f fff9 d2e1 9627 d6bf
000002d0: 576f 2d03 d5dc f2bf 8ee5 acf2 976b d7bf
000002e0: 9981 1fa7 1dbe ebbf 05c2 e0c0 acb1 e3bf
000002f0: 3f63 884d 5b29 d1bf 811b 9f4e bad4 f3bf
00000300: dff7 5f38 b4d8 ccbf 0569 034c b9f8 e4bf
00000310: 8572 8bc8 3f35 c5bf e01a 2481 2381 a6bf
00000320: 40b6 c8ef 936a 02c0 5954 3194 037e babf
00000330: a8ed b002 1433 bc3f aa76 1ca8 4081 e83f
00000340: 2132 77e0 4add e33f 55a9 197e 0587 f0bf
00000350: 2270 b9a8 1d41 e4bf 8ab6 ab87 dcb1 e33f
00000360: 914a 7986 5f3e ee3f 0dda 517b b8bb d53f
00000370: 9624 4d20 b381 f8bf 2f0c 44b4 d84a b4bf
00000380: f4d2 9a5a 0c96 0840 47ef 5f33 6ae3 ca3f
00000390: 288c 14f4 54e0 e43f 889a e2f4 f54b f63f
000003a0: 075f 6c2d 21e1 dabf 51c7 c167 9ea5 bbbf
000003b0: 8d34 39d9 e713 f73f ab54 1665 e15f f6bf
000003c0: 735f 166d 0162 f63f 5b8c a219 683a febf
000003d0: d896 9096 354f bd3f c92b 13fa bc70 e9bf
000003e0: bc1c e62f d6ed efbf 36fa 9490 829e d7bf
000003f0: 260b 93f5 bcae fa3f 7e1b 17c8 2d44 ee3f
00000400: 2236 ac44 6117 cd3f 3c15 6ec3 47ed fbbf
00000410: 8c96 afd8 7b69 afbf bc7d 5ae5 f77e e63f
00000420: 8ae1 4f1b e9b6 ed3f 9abb 1604 1bce e1bf
00000430: 804d a0c3 5f01 d03f a878 d6f1 f651 da3f
00000440: e093 1790 edfc eabf 1488 cf35 0461 f3bf
00000450: 867e 70ce b58a d5bf e92e 1090 02b5 0740
00000460: 3886 dc1b d964 e73f 64e3 124a 7658 e6bf
00000470: 6c4e b345 c9e2 f93f daca 3a86 66cf e03f
00000480: 24dd a922 3fa8 a8bf d4e5 be7b 510b ef3f
00000490: d811 e3f1 912a df3f b972 1ce4 6b47 df3f
000004a0: 41d2 5a68 0d1a ba3f 14f2 eb58 9926 e83f
000004b0: da8c dfeb 8bab f93f 0c3e 7486 8a1f e8bf
000004c0: ecf0 e6c5 dbd4 f03f e3cb c468 94c5 f23f
000004d0: c656 8a3f 020d e33f ae45 179c 25e1 ecbf
000004e0: f0dc 280f 1450 e13f efc8 19e8 7dcf a73f
000004f0: bb93 9c06 cf03 b0bf 672c 3a3c 8804 dc3f
00000500: cf65 58af 20c0 e1bf a214 574c 7420 f23f
00000510: 8b55 838e 9054 f93f fdb5 c84b c062 dbbf
00000520: 24df 1eba 6c8a 0140 6ee6 7ff8 0bd1 da3f
00000530: 3e7b 1a2a 2fb1 eb3f 1c3e bcf0 6a61 b43f
00000540: 3a37 f5ba f69a f9bf 4fa4 3239 af68 f33f
00000550: d94f 29cd 5ec2 de3f bb46 cda1 4855 f5bf
00000560: 4ebc d188 049f c7bf aad2 5a94 39f3 f03f
00000570: 550b fff2 5908 ebbf 2832 65dc a23e d5bf
00000580: dd6b 7b99 8f3c f53f ad53 a2b9 3208 e93f
00000590: a20f 24d5 b874 e33f 7139 656c f220 f5bf
000005a0: bf31 c1c3 cdcc aabf fd85 ccff 25b5 c83f
000005b0: 7cdc 296e 5d4c f1bf e181 0210 62ea d13f
000005c0: 1264 50d3 3634 f33f 1ab4 87be eed4 b3bf
000005d0: 8082 a9be daaa e0bf a49c 47e4 4db4 e4bf
000005e0: 8681 d98f 1a57 e1bf c939 0707 dba4 e5bf
000005f0: ff52 87da 21fa ce3f 79f1 1a07 fcaf bebf
00000600: 7a72 ea54 184b eb3f bcf0 213d 1115 d4bf
00000610: cc41 cdfe 1dbb d0bf 882d bbf7 a39e dc3f
00000620: 9d87 bcdb 64a9 c9bf 794f ac21 d9af e7bf
00000630: aaea f7db d016 b7bf ed26 5f4d 08b2 fb3f
00000640: e3e5 075b e29d 9c3f d837 c66d 39c8 f13f
00000650: c686 385b 6f5b f13f 427a 5b79 8bd3 e5bf
00000660: 7905 7bfb 3822 e13f 8f6d 7512 3e25 e73f
00000670: 5e60 49b6 9384 f53f 876f adc5 d0cb ddbf
00000680: 0b55 4721 9437 f03f d3dd 7eca 3056 d0bf
00000690: 5d0e dc65 45bc efbf 5ab1 ef0b d8a8 cd3f
000006a0: 5421 b8a4 84b4 f73f e9ba 7cc3 2744 e93f
000006b0: 7ef4 c41f 68b6 eabf d1d6 d314 6d6e f3bf
000006c0: b344 95fd 85b0 ccbf f47a 021c 701d f63f
000006d0: 81bc c72b 1a51 f3bf 1940 42af 616b e3bf
000006e0: 3eca 0190 97e1 d3bf dab3 2a4d 5981 d03f
000006f0: cb60 daae 1677 f23f 6d10 27d9 2169 f4bf
00000700: 29c9 e356 df6d fb3f ddee 60f6 527c e4bf
00000710: 8c5f 5927 8dac ff3f 19fe a0b9 0cba f2bf
00000720: 0be1 9b80 6e7e e3bf 894a ee10 e12b f03f
00000730: 2ea4 ab50 31d6 e6bf 4f0c cdad f966 e5bf
00000740: 3605 4d29 722b e53f 4901 2b3b 07be dbbf
00000750: 01e9 bbfe bb1e f0bf fbaf 30a2 0f26 f83f
00000760: 7558 fa49 c1fa f43f 4850 b601 9311 c5bf
00000770: 26e1 3906 0cc1 c23f 45b8 ec10 0cb1 e83f
00000780: dbe3 77b9 e17d d43f e0e2 e1fc 7dea eb3f
00000790: 342d 7e2c b4a8 e0bf 4142 8965 a262 c23f
000007a0: bcc4 7bae a8ef d33f 1245 dcd9 5382 dc3f
000007b0: 1d82 185d 3c3f f13f 22d7 a0b2 790e ff3f
000007c0: d760 8967 595f f7bf 1e69 b0f5 cb45 e13f
000007d0: 4c54 b6e6 a319 f43f c1b1 269c 511c ce3f
000007e0: 58c4 eaf6 4d17 f9bf d618 4bf3 202b ed3f
000007f0: 0fd7 3aa0 a6f8 f83f c719 c56d aaa4 e0bf
0.1259588209882147 0.9280230762181113 0.4462483633246313 -0.852568163847914 -1.2342293254765357 -0.5298636932792576 -0.917243328872032 -0.1913926597047635
-0.7755208122946603 0.9146825321381449 -0.2854768006550925 1.8818454285846793 -0.4665179291527606 -1.6002420456876065 0.8452163347950434 -1.4578591163953825
0.17732696716746718 0.936773438163551 0.7411519030071921 0.4053001888554434 0.6052618710313429 -1.738967418925141 -0.15118755021407868 0.053890353850083283
1.3507698686625926 0.001791066800050506 -1.6698779105762505 -0.6819495946096624 -0.6385519996464856 0.8918795296186419 -0.08838747661579965 -1.1455876697215974
0.09504356980354915 -2.2503536547848793 -0.10049203755570409 0.2517397547235687 1.5474723750487873 1.3951033734063893 -0.4400504608097502 0.2600499164480485
0.7040787539157091 0.28073522259346745 1.4664015228675944 -1.1667783609640934 0.8319728575266783 2.2937848351821577 -0.03996621916534193 -0.11965907716944063
0.7948678583438157 -0.20653179441761965 0.15944318090372522 0.387887069389868 0.5851712552978776 0.8649465973002173 0.2505354794669749 -1.2236925443715079
0.09408451491615812 -0.7252970597667052 -0.4954017440494623 0.28639403994279305 -0.1453432224646503 1.6466662441625113 -0.1643984666992681 2.0930062123092354
0.7362294394650836 0.7769838109248361 1.2244103969013291 -0.7587464901726253 0.5474124310214785 -0.6278397938281475 -0.11531529053622723 -0.5391411263315086
-1.0858955983979188 0.4789770737715086 -1.3778231522600286 -0.9152202598042843 -1.1495563148708043 1.0477565601027727 0.8451477063642509 0.3196903711160298
0.7629068749142367 1.4893841920356001 -0.6136462665730958 0.9080353292798968 -2.173210803746017 -1.6178898118820932 -1.2434107677525688 -1.6365759719386541
0.28825377007054387 -0.34616634419572273 -1.1789140819664305 -0.3659419889332519 -0.8669574989435659 -0.6154388205669085 -0.268149209704962 -1.2394354888108128
-0.22536328079871645 -0.6553617939601116 -0.1656875352117774 -0.04395400000980998 -2.3020399792792716 -0.10348532073960949 0.11015439096165969 0.7657779010221095
0.6207632431119842 -1.032964222506583 -0.6329487128637121 0.6154616021937767 0.9451139093819895 0.33958255808775634 -1.5316649686595034 -0.07926706696530127
3.07326575074182 0.2100651503422972 0.6523842589562081 1.3935451093508693 -0.41999082027312834 -0.1079958918869839 1.442359779862531 -1.3984083126754665
1.3989271413065267 -1.8892594338765523 0.11448988843821029 -0.7950119861865171 -0.9977827964329644 -0.3690496837552105 1.6676606743573728 0.9458226116192774
0.22727599957617978 -1.7454297670349908 -0.06135165233699266 0.7029990653572251 0.9285779508054912 -0.5564093665942551 0.25008386711234465 0.41125272385569156
-0.8433749975489455 -1.211185655782633 -0.3365911975870194 2.963383794301866 0.7310605568092745 -0.6982985922578391 1.6178677294418788 0.5253174420998576
-0.048158619862926494 0.9701316277416319 0.486973272531285 0.4887342193267546 0.10196002767299552 0.7547117935897085 1.6043814863012842 -0.7538502336555566
1.051967404418117 1.1732372372177842 0.5953379860900092 -0.9024837540293242 0.541025189980159 0.04650491197834749 -0.06255811606804589 0.43777662164274606
-0.5547030853951415 1.1329234106099553 1.5831456725039483 -0.42790229225906257 2.192590192858818 0.41900920169391653 0.8653789350827095 0.07961147668196883
-1.60033295660419 1.2130577310838537 0.4806134227303552 -1.3333212204346825 -0.18454033547047505 1.0593810839756466 -0.8447694536228975 -0.3319480087564295
1.3272853846926786 0.7822507501283461 0.607998291292905 -1.3205436929889312 -0.05234377874930684 0.19302821149999252 -1.0811437896025202 0.2799306064935348
1.2002475981191805 -0.07746784354795047 -0.5208562587614125 -0.6470097979153207 -0.5418827828944337 -0.6763739716787366 0.2420084301981191 -0.11987281011074015
0.8529168756973171 -0.3137858483312461 -0.2614207256601986 0.44718264763351856 -0.2004819939548356 -0.7402158410718435 -0.09019189234087813 1.7309649488765289
0.027946030431825874 1.1113828933771313 1.0848229945481065 -0.6820733423481402 0.5354275619248902 0.7232961998483222 1.3448674316951137 -0.46556491188470556
1.013569002146428 -0.2552606561179946 -0.991732310242195 0.23171520788981576 1.4815718111368215 0.7895697420225051 -0.8347664471144893 -1.2144594968389593
-0.2241370666693335 1.3821869939926588 -1.2073003492512557 -0.6068581030867818 -0.3106440454786571 0.25789482627697924 1.1540743665882924 -1.2756670458338946
1.7143243211872436 -0.6401762783129602 1.9796268021654866 -1.1704222918632523 -0.609183551015151 1.0107126866684288 -0.7136465621562189 -0.6688202280569245
0.6615534598023831 -0.43347340372203697 -1.0075035048053567 1.5092922530702697 1.3112194909822652 -0.16459882339097676 0.1465163259888495 0.7716121988830841
0.32018321144238165 0.8723745287998916 -0.5205937260629185 0.14363508184261956 0.3115026191654342 0.445454561952901 1.0779384266426242 1.9410340287844936
-1.460778622093178 0.539770107137233 1.2562598240085832 0.23523922085349905 -1.5681895871350857 0.9115147353957365 1.560705781839207 -0.5201007980293121
