previous_generated_weights/weights_20250228_172157.npy (npy, 62848 bytes, 1 tensors)

array f8 [784, 10]
000000 08 0e 18 c1 0a 6f f7 bf e5 fd c4 31 70 9e cb bf
       -1.4646098654492352 -0.21577265195990872
000010 95 1a 0b 51 e3 75 dc bf b5 7f 0d 5a e2 94 e4 3f
       -0.4446953097762301 0.6431743391840344
000020 95 83 63 e6 1f 71 f5 3f 8c e0 06 0e 61 de e7 3f
       1.3401183127936964 0.7458958887064155
000030 82 31 ae 3a ca 0b f2 3f ca b0 06 2c fb ac 00 40
       1.1278784076885988 2.0844634475271038
000040 48 22 57 a3 ee 57 e1 3f 8d 26 cf 9f 7c b4 ee bf
       0.5419839086762943 -0.9595320817254148
000050 0e a0 63 e0 d6 f2 e8 3f 10 36 30 aa 5d a6 ec bf
       0.7796434767342377 -0.8953083347311708
000060 d5 41 20 97 6d 57 ec 3f 24 d4 6e 8f 6b 9e 90 bf
       0.8856723739318634 -0.016229324941111525
000070 ba 0d 9b 2a b6 28 e8 3f 78 42 8d f0 37 49 cf 3f
       0.7549696762220528 0.24442195172970904
000080 f6 69 94 43 b8 f9 a2 3f 03 b1 f8 fc 52 bf e1 3f
       0.03706146073291798 0.5546050015305187
000090 4c 8c 34 85 6f 8e fa 3f 37 44 9d 78 7f 3c f1 3f
       1.6597743228274053 1.0772700034615477
0000a0 84 27 62 0a b5 ea f4 3f 85 d4 59 a6 c2 36 f7 3f
       1.3073015599825064 1.4508692262727731
0000b0 a9 0c b0 92 90 20 a2 bf ad ba 76 e0 7b 4c ff bf
       -0.03540469923611884 -1.956172825633682
0000c0 30 2b ad 0c 5f 59 f6 3f 09 cc 8c 77 02 de fc bf
       1.3968191619084784 -1.8042015714570445
0000d0 da 41 d7 c8 e1 48 cb 3f ee 81 13 cc cb d9 d1 bf
       0.213161681238957 -0.27891821793858085
0000e0 01 b2 f6 20 5e f3 c0 3f f9 00 7e 85 ec 6e fa 3f
       0.13242699250749015 1.6520810331858782
0000f0 fe 96 be a4 09 20 f2 3f 03 cf d2 5d 92 d6 f7 bf
       1.1328216967899034 -1.4898856797198625
000100 7f 3c db 00 f3 6f da bf ca 9a c6 d6 1e ad c8 bf
       -0.41308283885604874 -0.19278321730708675
000110 ea 4a c1 a0 4e e3 d7 3f d3 6a 96 d5 bc 52 de 3f
       0.37324872683272636 0.47379990442429437
000120 60 31 86 ec f4 f3 e3 3f b3 52 f4 19 07 9c e5 3f
       0.6235298747647384 0.6752963549539203
000130 85 74 97 d8 20 6b d8 3f 53 51 30 16 7e d2 e2 3f
       0.381538592829948 0.5881948884366842
000140 0b a2 36 de 01 13 ee 3f b1 c8 67 26 7e 89 e7 bf
       0.9398202266793886 -0.7355337858300769
000150 e8 a1 68 71 f7 da f3 bf ce cc 85 9b c7 33 e4 3f
       -1.2409586362865586 0.6313207662155038
000160 d2 60 02 60 cc b8 ed 3f b2 53 29 3e b3 f6 f4 bf
       0.9288083911115115 -1.3102295330220213
000170 23 0d 8c af b7 7d f6 3f d0 8d df d8 8b 16 f7 bf
       1.4056927544887194 -1.4430044623958231
000180 02 e8 59 f7 18 a8 e6 bf 2c f9 54 e2 99 b9 d5 bf
       -0.708019717319303 -0.33945319273688557
000190 aa a5 ff 6d b7 61 d1 3f af 81 24 ce 67 8b d0 3f
       0.27158914320042504 0.258508635817658
0001a0 19 4f 41 90 42 2f c3 bf 35 1c 24 f9 c7 df ef bf
       -0.14987976115900706 -0.9960670343433607
0001b0 01 b4 75 c6 bc d3 c5 bf 9b 03 a6 0b 55 8d d5 bf
       -0.1705242127458462 -0.3367512334589777
0001c0 02 f4 64 0a c3 21 eb 3f 3a ca aa cf d0 ac e7 bf
       0.847871322919332 -0.7398456626891126
0001d0 1f e5 14 04 d7 41 d1 bf 03 3e d9 fb 7c 50 d8 3f
       -0.2696435489520627 0.37991261095609746
0001e0 32 b8 58 0c 0c ef f1 3f 49 1d 3f 39 a7 bb f0 3f
       1.1208610994613193 1.0458137737458222
0001f0 52 2b 8d 3c 60 c5 00 c0 7b 51 e0 61 72 61 e3 bf
       -2.096374962862151 -0.605645362057245
000200 b0 9b 92 a2 df e6 97 bf 5a 9c 97 29 20 30 f1 bf
       -0.02334165029301588 -1.074249422521254
000210 73 ee db af 67 63 f6 3f 1e ac c8 48 f3 d1 ec 3f
       1.3992688054558158 0.9006287023124775
000220 1f 7d c9 38 1d be c5 3f 7a 70 b1 ce 15 a0 e1 bf
       0.16986432335668497 -0.5507916485762643
000230 78 d2 4d 04 89 a4 f0 3f 00 7d c6 10 7a 6b ef 3f
       1.04016973191497 0.9818697288173155
000240 b2 dd 14 0e 04 39 0d c0 6e 6b b2 2a d6 7f f4 3f
       -3.65283976555994 1.281210104737251
000250 07 ca ff 5d 0c 2f f5 bf 6f f6 46 fe 27 51 8e 3f
       -1.323986403641017 0.014803230712341546
000260 78 46 de 63 33 d3 c9 3f 40 7f 19 5f cd d3 e8 3f
       0.2017578351629259 0.7758547646917364
000270 5b 59 64 77 d3 29 c0 3f e8 79 60 8d 6f bc a9 bf
       0.12627642945944725 -0.050265775688092706
000280 fb 79 36 e4 2e eb e6 bf a0 a8 2a 51 1e dc d6 bf
       -0.71620888302624 -0.357184962524693
000290 4d ca ae cb c9 a0 ff bf 79 3f 79 06 a8 de d6 bf
       -1.976754947315061 -0.35733986503782195
0002a0 2a 53 93 f8 14 a7 dd bf 03 7f 82 1f f1 7f e1 bf
       -0.46332287096929525 -0.546867906134111
0002b0 88 2b 36 cc f4 4b e8 3f 19 72 c5 8b d1 15 e0 bf
       0.759272002077851 -0.5026633958728467
0002c0 a8 70 97 b9 85 6a e4 bf 34 d5 03 2a b1 f9 e9 bf
       -0.6380032181582651 -0.8117299862484857
0002d0 f5 c9 60 e5 1f 8f ae 3f dc 18 b2 d5 d4 1d f8 3f
       0.05968570399308596 1.5072830531585657
0002e0 80 41 75 7f c8 c3 d3 3f 58 cb f3 49 2c 61 f7 3f
       0.3088246578891116 1.4612238777887878
0002f0 71 ab a5 c5 71 ef f9 3f 92 7e 3a 66 7b 90 f8 3f
       1.620958110865754 1.5352739327717342
000300 9b 8d 70 0c 6a 60 74 3f be ea 47 f3 0a 29 a5 bf
       0.004974760296167525 -0.04132875652063238
000310 0a 13 45 9d ee b3 a6 bf e8 ac 8d 28 b6 f0 c4 bf
       -0.044341522882438936 -0.1635959337248558
000320 36 21 81 aa 2b a7 e0 bf 38 cc 15 a0 cf ef fe bf
       -0.5204065637745205 -1.9335476163221426
000330 95 97 f2 4a 8f d1 d2 bf b2 d0 6e 52 31 19 eb 3f
       -0.294040511313477 0.846825276376441
000340 99 f6 5e b9 37 a4 e8 bf ef e7 a8 c4 c0 94 f3 3f
       -0.7700461025740025 1.2238166505835542
000350 2e 50 37 6c 31 52 be bf ce 23 3d c7 f3 01 fb 3f
       -0.11844166652673557 1.6879766257063582
000360 b9 79 23 1e 12 51 e1 bf 6e 48 95 9a 6f 04 e2 bf
       -0.5411463345188202 -0.5630414981080898
000370 5b 48 4e cb 5b 7d ce bf 4c 76 63 9a c3 de 01 c0
       -0.23820063998261073 -2.2337715207675384
000380 b4 f2 00 51 17 9d e1 bf 74 b2 bd 79 4e 7d e1 bf
       -0.5504261571982938 -0.5465462091211308
000390 40 52 17 4b 5b 0a c6 bf e9 de e8 f6 c8 26 f4 3f
       -0.17219105879361685 1.25946899842341
0003a0 d5 08 7e 52 ec 91 d0 bf 0c 2b b4 b9 e0 40 d1 bf
       -0.2589064412678799 -0.26958482871184297
0003b0 4c 0b 40 1d b0 5f e2 3f a4 8f f0 85 2e 2f e0 bf
       0.5741806575100354 -0.5057594886788945
0003c0 fd a5 65 59 89 93 e6 bf 49 2d 45 e0 ed ff f9 3f
       -0.7055098291431815 1.6249827156596715
0003d0 e7 55 fd d9 11 53 e4 3f a5 c9 ca bf 6a c2 e4 bf
       0.6351403482064456 -0.6487325426044676
0003e0 ac 01 a2 19 0d 02 d0 3f da 13 fc 8f 14 5d ec 3f
       0.250125193626469 0.8863623439980259
0003f0 35 96 13 88 a6 39 f1 3f 72 35 10 e6 b5 4c f4 bf
       1.0765748324860287 -1.2687281596039068
000400 45 64 68 5a e2 5a b5 bf 52 b0 c2 7a fd 8f f3 3f
       -0.08341803271504585 1.2226538462955614
000410 ba 26 00 30 2a 50 e3 bf 7f 3e ab 26 b7 77 df bf
       -0.6035357415687124 -0.4916818502069659
000420 74 d6 89 2d 1e ed e7 bf 91 f1 16 9b a8 6e f2 3f
       -0.7476950539991791 1.152016263789026
000430 64 ad f8 d0 d5 95 f1 bf 78 9f 8d f3 ed 0b db bf
       -1.0990808642335077 -0.4226031187486039
000440 4f 7a fb d5 84 cb db 3f 35 2e 3a 60 de 0d e0 3f
       0.4342968072577706 0.5016929511488742
000450 1b 85 3c a4 d6 57 f4 bf f0 97 77 42 5c 43 05 c0
       -1.271444932507001 -2.6578908150431673
000460 d9 b6 1d ee 58 bf ec bf 53 a3 b8 16 d6 a4 fd 3f
       -0.898357834883167 1.8527432334469338
000470 f2 2e 55 13 11 93 d6 3f 48 bb 8c d2 01 9f e4 3f
       0.352726239089619 0.6444100487040965
000480 a3 da 2c a2 67 b9 f3 bf f7 f3 0c 0e c7 7d f3 bf
       -1.2327648482293305 -1.2182074116565198
000490 d5 50 14 d8 cd c3 f6 bf 56 9f 17 a2 da 24 a4 bf
       -1.4228037300682008 -0.03934367397942988
0004a0 47 e6 c2 ed 72 e8 c4 bf 53 a9 c7 7c 63 f7 e9 bf
       -0.16334377870025404 -0.8114488064868887
0004b0 eb e2 3e 48 72 5e 01 40 bf 67 dd 14 4b c1 f3 3f
       2.1711164135161787 1.234690743926407
0004c0 6a 2f 5c 32 31 0e f3 3f 7e d0 a1 76 28 ce ca 3f
       1.1909648863974902 0.20941644470770265
0004d0 ab 68 31 52 01 74 f6 bf 58 19 e7 de 24 d5 f5 bf
       -1.4033215723671144 -1.36453711577777
0004e0 e5 35 62 66 6a 20 f9 3f 96 dc b0 cd 3d 8a da bf
       1.5704139708863007 -0.414687586660372
0004f0 a1 47 90 b8 43 87 a3 bf f0 2b 82 f2 82 9f cc 3f
       -0.0381413615033488 0.22361790505632895
000500 9b b0 e3 aa 1a db d1 bf 47 11 c3 3d c3 55 c0 3f
       -0.27899805725497523 0.12761726871225162
000510 0d da e5 99 63 7b f7 bf 9e 98 42 f4 7c 07 f4 3f
       -1.4676242839465232 1.2518281499301689
000520 e2 ad 60 e9 2e 32 da 3f c7 e1 50 e4 24 3d e4 bf
       0.40931294241701555 -0.6324638804717829
000530 6b 92 f2 86 71 3e e8 3f d0 36 1d 66 d7 54 ef 3f
       0.7576224933332701 0.9791066164413795
000540 16 2d 67 16 08 19 fa bf 4c 4b 4a 54 2d 89 dd bf
       -1.631111228477328 -0.4614976237436863
000550 80 81 34 bb ce 57 e1 3f a0 02 78 76 67 3a cf bf
       0.5419686943387632 -0.243969853254403
000560 5e 11 a8 dd ed d5 f8 3f 2a d8 b4 87 94 ba f1 bf
       1.5522287996728532 -1.1080518055946507
000570 e9 75 c4 08 7a fb ef 3f 7d 9f ac 9c 40 f7 d3 3f
       0.9994478389014009 0.31196608829713296
000580 f5 c2 43 58 1e bc db bf f5 0b 8d e6 3a 1c cc 3f
       -0.4333568441352747 0.2196115136849525
000590 b1 0f 03 16 e1 3a fd 3f c3 c4 76 7f bf 4e f8 bf
       1.8268748149721257 -1.519225595384612
0005a0 6c 63 d8 bf 72 bb d0 3f 51 82 9f 48 c7 82 f0 bf
       0.2614409326065956 -1.0319283329810285
0005b0 0f 9f fb bf d6 bd f9 3f fd 1a f7 ad de 21 02 c0
       1.60884737962073 -2.266538008788642
0005c0 20 cf ba 51 bf ac d0 3f 15 87 9c 90 5b 06 dc bf
       0.2605436609403444 -0.4378880417080933
0005d0 83 b3 59 2e ae de c7 3f 13 da f2 ab 2f 97 c3 bf
       0.18648316634371662 -0.15305133720330896
0005e0 a7 fe 29 d6 68 a2 03 40 64 b2 6e 64 7c 9d ef 3f
       2.454301522404268 0.9879743539400576
0005f0 4d bd 9f 04 7b 36 f4 3f e4 94 7c 5b 66 a9 f7 bf
       1.2633009129165942 -1.4788573812195915
000600 d6 67 ed ee 36 19 f6 bf 60 e1 28 70 8f 21 f6 3f
       -1.3811559041118833 1.3831934338796472
000610 3d bf b3 cd 30 37 f1 3f fc d7 f5 c8 11 d4 d9 3f
       1.0759742770423621 0.4035686933997338
000620 ea a9 9f bb e3 a3 f4 bf 86 ce 31 81 e9 4d ea bf
       -1.290012104897523 -0.8220107577639773
000630 0a 5c 33 52 05 be ef 3f 92 53 88 2f a5 ae d6 bf
       0.991945896671383 -0.3544095005211655
000640 bc 04 df 29 30 fb fb 3f f6 7d c2 ce 24 03 f1 bf
       1.748825229224436 -1.0632675243904237
000650 72 e2 2a 69 72 4c c2 bf 71 a5 04 e8 16 74 d1 bf
       -0.1429579747689505 -0.2727105394174805
000660 0b a0 84 dd 12 f5 dd 3f 70 ef 78 1d e3 66 d3 3f
       0.46808311112045037 0.3031547344032708
000670 84 2a 04 43 22 1b ef 3f 09 c8 69 38 51 51 81 bf
       0.9720622357284161 -0.00845588162812662
000680 17 55 73 ef ce 77 ea bf b4 9c dc 8b 39 8e 03 c0
       -0.827125041653434 -2.444445698423431
000690 21 e5 96 67 af 73 f8 bf 05 39 b3 42 f0 74 c5 bf
       -1.5282434507810836 -0.1676311803516414
0006a0 df bf 0f e6 8d 77 df bf b6 ad da 5b ed f9 e7 3f
       -0.4916720148748918 0.7492586893107986
0006b0 6e bb a3 b9 3f 75 d4 3f 31 00 16 22 68 74 b3 3f
       0.3196563065420638 0.07599497635055809
0006c0 12 31 f5 de 90 b5 cb bf 86 67 1e 84 67 37 d5 bf
       -0.21647845160112716 -0.33150661375258783
0006d0 30 1f 8b b8 43 58 01 c0 a2 93 2c 89 d2 09 ea bf
       -2.1680979173142063 -0.8136990241224462
0006e0 4f 03 8a 32 91 ee c4 bf c5 f3 1b 98 77 65 fa 3f
       -0.16353049247484328 1.6497722570195361
0006f0 1b 02 9b 09 84 e4 e1 3f e0 cc 93 97 b5 25 b3 bf
       0.5591449916465224 -0.07479414892786762
000700 96 55 c8 05 7b ac e1 bf 68 02 04 0e f6 a3 e1 3f
       -0.5523047554913088 0.5512647889846223
000710 95 ff 49 fe 86 5d f3 3f 5d 7a 21 70 a0 d1 f5 3f
       1.2103338177839522 1.3636783962353072
000720 29 2a c8 a0 f0 e0 f0 3f df 5e 99 72 00 09 f4 3f
       1.0549169807951648 1.2521976925399299
000730 0d e9 82 c9 9f 84 f8 3f c4 4f b1 17 8b ca f4 3f
       1.532378947404655 1.2994490552418805
000740 03 6a 2f 1c d7 e9 db 3f 0e bd b3 6e ee 5c ee bf
       0.43614747765028045 -0.9488441621923884
000750 93 5d 53 ee 4d 13 f1 3f e7 01 9b 69 f2 03 f7 3f
       1.0672129926295824 1.4384636044707066
000760 2c 51 c2 26 a2 fd dc bf 28 1d 3c b2 4b 29 e6 3f
       -0.4529805544382437 0.6925409775875879
000770 fc 5f fa 8a 7f 94 d2 bf a5 bd 01 35 a2 3d ea bf
       -0.2903136117179199 -0.8200236354149878
000780 af 92 42 7d 5e bb fa bf b2 8a ce f4 76 fa f4 bf
       -1.670744408890794 -1.3111486017957472
000790 fa a4 04 39 4e c4 ea bf 46 77 9f be e9 48 f7 3f
       -0.8364630807529061 1.4553010412414138
0007a0 a0 87 a0 1f ea 72 e0 3f 94 8e bd c7 f1 a4 eb 3f
       0.5140276544300271 0.86388482105072
0007b0 f7 9e 96 a4 c1 42 ea bf 42 c1 80 2a 6f 59 ed bf
       -0.8206489767662494 -0.9171672659049721
0007c0 c6 9f b0 87 43 b6 f3 3f 05 45 c2 9e 44 7f ed 3f
       1.2319979954136087 0.9217856503256888
0007d0 3c 1c f5 61 f3 31 fb bf 61 06 38 33 ab 31 af bf
       -1.6996949984038698 -0.06092581749181814
0007e0 ab a6 8a 6f 9d 09 c2 3f d1 45 c2 00 71 79 b3 bf
       0.14091842600219215 -0.07607179897811213
0007f0 75 89 1f f7 60 2b f1 3f 94 7c cb 45 cf 9c f2 bf
       1.0730905202150016 -1.163283608089647
