previous_generated_weights/weights_20250228_164148.npy (npy, 62848 bytes, 1 tensors)

array f8 [784, 10]
00000000: 440d 765f cc64 01c0 d766 6805 6578 f4bf
00000010: 1f60 37ae c7bb f83f d06b b0b1 c15f b2bf
00000020: ff60 3274 1d7a ebbf 6940 13c5 45e5 f4bf
00000030: f641 d806 27e8 e73f c05f 02c1 dfa1 e9bf
00000040: 4add e844 5cfc e2bf 70db f12d 8050 dfbf
00000050: 6a95 03fb 9394 c93f 9c07 fb3b 4878 f9bf
00000060: 7d2a 2db6 d0f8 e1bf 23cd 8824 3427 f2bf
00000070: c846 6619 8c03 d23f f9ff 1dbc cd2e e13f
00000080: 2dbd 2f18 79ec 01c0 b837 e4f6 aa0a c7bf
00000090: 0a73 ec25 62e1 eb3f 77a4 6095 1793 02c0
000000a0: 5c76 d351 78d6 f5bf c7ed 07d5 954b edbf
000000b0: 6fe1 5e38 0f27 ed3f f779 6af2 9e99 e7bf
000000c0: 8f5e 0e0d 72b1 f2bf 12ed 71bb 775b ae3f
000000d0: 0854 859a 5879 f4bf 12ab c8db d0e8 edbf
000000e0: c55d 24d1 ce58 f73f 50d5 789e fa41 e93f
000000f0: 9690 968f 41cc c4bf 704c c161 caf6 e8bf
00000100: f4e8 9bb1 e065 d8bf 5cc7 7ac1 a224 ebbf
00000110: 1a8b 75eb 8833 fdbf 3694 52f0 0193 b0bf
00000120: eacd 5c5d ba71 b7bf 0e71 22b5 06b2 05c0
00000130: 300f 5159 913f ecbf 8df4 6612 2701 f73f
00000140: bc76 9368 dc3e e4bf 2685 61de 6412 0640
00000150: b497 da93 c962 e6bf 034f 3118 dfd2 eebf
00000160: a42f 5f5e f99a e0bf 4840 8eb2 0e0f e03f
00000170: ce94 a8f0 4358 d3bf d1ad b364 00a0 de3f
00000180: 28e8 bd0f cc3c ad3f 9b8c 2645 1665 f23f
00000190: 0c23 354d c307 00c0 d1d6 ed74 a8d2 49bf
000001a0: 8c96 c6b6 6071 01c0 a966 e7fc 0683 f53f
000001b0: dc30 5b6b 1339 eabf 5190 43b7 922e ee3f
000001c0: 6d6b 998f 297a b13f 4052 fc0d 27ae bbbf
000001d0: 34bb 866d 6285 e73f 934a 692c 4cf0 d03f
000001e0: b900 6854 9dff f3bf 5c84 7b20 fa9a d5bf
000001f0: 196a 63f2 1142 0040 7a51 ec4b 5dc4 e1bf
00000200: 801a 9779 f9f8 cebf 0ac2 b3a0 6d1c fcbf
00000210: 4023 1db9 0ed5 ebbf 72be b094 809f e93f
00000220: ef27 8f75 4372 f63f 96a9 3af8 5a28 df3f
00000230: 42cf 721e f0f6 d93f 0e95 54ec 9483 c7bf
00000240: 0b9d f813 a702 ff3f 9624 9537 8cc3 d5bf
00000250: 7192 e0ae 49bc f53f ef43 a910 d664 e03f
00000260: 50fc 855f 8e46 b9bf 510f 4f25 791c ae3f
00000270: e4e5 a50e 67a2 e6bf 603c 482e 5e61 85bf
00000280: 8b02 92d5 ab78 e9bf 6b54 ce44 0112 cabf
00000290: ea1b 9fd0 aa59 c83f f5d4 5931 1796 d73f
000002a0: ec3c db66 81b5 e7bf f187 a9ba 8969 bcbf
000002b0: c432 5fa2 6b7f f1bf 75dd c79f 6aff eabf
000002c0: e611 7724 46fc e93f 9d17 8c1c 6a66 c23f
000002d0: d890 0dde 366e 00c0 0163 ecbc 69e1 f4bf
000002e0: 41d9 2d8f cbf9 f43f 3977 c4b4 79e0 d03f
000002f0: 61e9 2430 1595 d8bf f67f 560c 4b34 c73f
00000300: ad67 7610 9ef8 f1bf ca23 8c21 78af d0bf
00000310: a870 c533 8bc5 f23f 3e2d 8e7b 5f81 f5bf
00000320: ae26 4898 8391 ed3f eca5 b7d6 6a6d ebbf
00000330: df01 1653 48f7 f7bf 3204 c774 0fed df3f
00000340: 3f6a a507 4261 e13f 672b 5a1a e76d c0bf
00000350: 2038 cd4f de1b f33f 1645 f691 6010 de3f
00000360: e1b4 b299 25e5 f1bf 324e 367c 2bb1 f2bf
00000370: 61e9 4117 6aec d03f f5d4 1629 c0e8 e23f
00000380: d16a eaa7 a9e1 f83f 1a87 8e41 c335 e33f
00000390: 3fba 5bce b1d5 cbbf 048e 1815 6cbb f8bf
000003a0: d087 6788 1e38 dc3f b00f 4280 ccd0 f2bf
000003b0: d90d 5743 ab39 fcbf ddaf 6745 8d72 ed3f
000003c0: 2a10 b636 daaa b93f c47c b003 6f3a e23f
000003d0: d2ef a9ad 296d c23f 6d53 aef1 56ed e93f
000003e0: bc1c acd7 e26a e83f 05de 96c1 b4bd d3bf
000003f0: 3930 232e 59a9 f3bf c453 ca19 f10d f23f
00000400: 2cef a0a3 b5c2 ea3f 46cf c032 5ffd dc3f
00000410: 7026 7cd1 a61a de3f 2d82 a3ce 337d e83f
00000420: 7dc7 0ca4 0324 fd3f 0395 7e76 e8d0 cd3f
00000430: 1ed1 454b 15a1 0240 7114 3655 c0de b13f
00000440: 4e7b c5e3 f252 f43f 8539 6826 aee4 f63f
00000450: aadf 5a79 4d65 d9bf 318d a2a1 ef9c afbf
00000460: af06 5837 3602 c9bf db43 0518 0ba2 f8bf
00000470: dff9 9d7b 86d6 d7bf db94 e70f ee2f f73f
00000480: 29c4 0a3f 42cb e8bf 9404 9d18 2695 f1bf
00000490: bb67 4eaa b807 f8bf d87d 2532 4873 86bf
000004a0: f03b 5de4 0960 e5bf 9e4b ef40 9b23 e53f
000004b0: 2510 50ce 4fa9 ddbf 6fe0 f463 6234 f0bf
000004c0: 6be5 ceb4 ef72 d5bf 60a9 1e1c 09ad d93f
000004d0: 0925 707c 348c ff3f 5300 0ac9 436d eabf
000004e0: c2fe 5439 3cc8 e0bf c666 0364 7ee8 e5bf
000004f0: 11a8 0327 1067 e3bf d3ec 3c85 efa2 cb3f
00000500: 8955 fa6a ca4a b8bf 7b5e 9fa4 f568 03c0
00000510: 1c08 eae1 840f bdbf 5dd8 709a 73b5 a0bf
00000520: e46b afcb 92d8 e33f 9fe1 886e de55 f7bf
00000530: f539 ba9a 945b f23f a1f4 d553 7dc0 cd3f
00000540: 5511 8b3f 25a3 f53f 7e5f b6ab 5c8d d23f
00000550: bfdc 6727 d302 f6bf edb9 7826 be4c db3f
00000560: 861f c15f d5a8 e3bf 04a2 e1ad c162 f4bf
00000570: 0cbf 00e6 0be6 f63f e0b7 49b6 faa5 e33f
00000580: 9216 da5c fc69 e0bf 1600 1b56 d8f6 f3bf
00000590: 7594 acf1 b522 e23f 3453 45e5 9aad f3bf
000005a0: bc8f cf37 e08d cc3f ad61 ae94 3aa0 dfbf
000005b0: 0696 ba5c ddb4 e1bf 46e0 5ca2 5246 cebf
000005c0: 1df1 6c13 b73c f13f e266 d47f 968d e53f
000005d0: 4961 9253 cd7c e8bf 8cd7 543e 6033 f53f
000005e0: 57a1 e62d 1929 f53f 9f28 4e3e ad3e a0bf
000005f0: 999f 7c49 0cdf bebf 4be2 db69 917d f8bf
00000600: 03f2 ccfd abd9 e0bf e2f5 473d 420d f43f
00000610: aaea d4d0 15e4 de3f 2f32 f643 617e d4bf
00000620: 488b cf0b cfd1 e23f c573 4046 bdf3 c1bf
00000630: 4aeb d258 a979 0340 541c d827 89af 80bf
00000640: 13ca 30de 482c c23f a130 68ef 69d1 e73f
00000650: 4e13 0b0c dac5 e33f 133a 4808 13fc 0740
00000660: 2930 9eb6 4738 d3bf 5350 e31a 8fb9 f2bf
00000670: 86d6 9e77 2ec3 ffbf e065 32a5 600d d4bf
00000680: 7f9a 5dc6 c070 fa3f 6199 5ab6 3867 f23f
00000690: 74da 2020 9414 e03f 0cd8 fd3b 82d0 c1bf
000006a0: 4400 822e f2d7 f13f a4f6 036f 124b 05c0
000006b0: 6e57 7c29 f466 e1bf 3da9 47bb 91d1 0340
000006c0: d5c6 6446 8d96 94bf f4e7 dae1 42b1 e5bf
000006d0: 5ab2 548e 35ef e33f ce67 2b3a 39e1 efbf
000006e0: 2149 2ffa 97d7 e4bf 5dee 27d1 4db2 e33f
000006f0: 761b b5d3 5e16 d5bf dd29 e697 eaaa e13f
00000700: 2575 af7a 30e0 e1bf fd43 f69b 47fc f9bf
00000710: 7693 6cd9 89e6 02c0 ac97 7199 970d a5bf
00000720: 0a0f 6e41 beba f5bf 2284 1697 757e e73f
00000730: 5f9b 328c 57ba bebf 5d17 fe80 899b eabf
00000740: 33c1 556d 9775 f73f 6854 03c9 44d6 d4bf
00000750: 81b3 df8a f36c ecbf ead8 e696 ee2d fdbf
00000760: 974d 3236 0096 cb3f 31a1 7ea7 76b4 d03f
00000770: 3517 b85a e39e e53f 5b55 839e dd25 d13f
00000780: 8430 c038 a430 f33f 303f 0d5d 049b f9bf
00000790: 761f 450e 0a31 d03f 63df 8840 6c1f a23f
000007a0: 502d 122f 7237 e93f be6c f24e 1f25 a2bf
000007b0: e3c1 9b8d 0a3b d93f 5715 6484 3a1f ca3f
000007c0: 6066 94e0 0b15 ef3f 4362 d624 c372 ce3f
000007d0: daa7 c055 cad7 c1bf ffbd 92c6 a51a fa3f
000007e0: f270 eb3c 8f81 b63f 5cb1 2bc5 8ef6 dcbf
000007f0: 8765 68bb 0295 b9bf 6aac a506 a7a1 f4bf
-2.1742179353620106 -1.2793932162516535 1.545844727070296 -0.07177363002885717 -0.8586566228359799 -1.3059747408151685 0.7470889218985224 -0.8010100145065664
-0.5933057161227364 -0.48928837286751214 0.1998467422155657 -1.5918657629958721 -0.5616229589589491 -1.134571211540625 0.2814665077249683 0.5369633363879976
-2.2404653443878915 -0.1800130563282758 0.87126262099227 -2.321822325717729 -1.364860839493665 -0.9154767189751788 0.9110179997433486 -0.7375025496183402
-1.168321658134946 0.05929159320018064 -1.279625514599731 -0.9346699040082476 1.4591816110240512 0.789304074779162 -0.16248340140476064 -0.7801258000639688
-0.38121812195426164 -0.8482221392534757 -1.8250817487357325 -0.06474315755129187 -0.09157910136564565 -2.711926856149268 -0.882759737440642 1.4377814024767617
-0.6326734583378406 2.7589814542303825 -0.6995590102931062 -0.9632411453735304 -0.5189177363586066 0.5018380629935644 -0.3022622919255128 0.47851571878592575
0.05710447017823156 1.1496794415659568 -2.003790476974592 -0.0007880518477196512 -2.1803602485040923 1.3444890860613816 -0.8194672676850376 0.9431851939557508
0.06827029949037718 -0.10812610713430448 0.7350322856126241 0.26466659867325254 -1.2499059006805011 -0.3375840489589501 2.0322607933606034 -0.5552202685235408
-0.2419730991079696 -1.7569404866627587 -0.8697579970840721 0.8007204918012134 1.402896365371358 0.4868380951035304 0.4056968972538365 -0.18370305575914653
1.9381476192591574 -0.3400602858351446 1.3584687071935628 0.5123091054357455 -0.09873285133470344 0.05881098347120307 -0.7073245321363939 -0.010439620768947389
-0.7959803744598316 -0.20367446765581873 0.19023642717931405 0.3685358030264319 -0.7409064301408796 -0.11098538214858401 -1.0936085074092015 -0.843678772041058
0.8120451652726473 0.14375044244678473 -2.053815588749881 -1.3050324802226785 1.3109851448949288 0.2637008920008728 -0.38409928990917847 0.18128336050449406
-1.1231976168696562 -0.2607097938167128 1.1732284567179168 -1.344085199964709 0.9240129446272556 -0.8571066087435475 -1.4978717084451245 0.4988440170673726
0.5431223058070102 -0.12835396563272214 1.1943038098575087 0.4697495866212916 -1.1184440616446454 -1.1682543613468508 0.2644295909045891 0.5909119417689498
1.5550934371191725 0.6003128319173101 -0.21745894027795207 -1.5457573722895868 0.440925248343885 -1.1759762773590232 -1.7640793447943592 0.9202333789412439
0.10026325069162625 0.5696330139216106 0.14395638446501252 0.8102221222239742 0.7630476200437424 -0.3084537401695971 -1.228844814514572 1.1284037597117598
0.836268252932745 0.45296459156383084 0.47037668664470456 0.76528349265215 1.8212925346565207 0.23293786798345914 2.328653896396772 0.06980516510346192
1.2702511689492044 1.4308301449087548 -0.3968080220324689 -0.06174420211871235 -0.1953799982293751 -1.5395613611510643 -0.37246858665448984 1.449201643111613
-0.7748118621149206 -1.0989132844409015 -1.5018850948895153 -0.010962070494030238 -0.6679734668958854 0.6605964916474141 -0.4634589686177171 -1.0127891449501722
-0.33514015824365256 0.40118625398704033 1.9717297421323698 -0.8258379866165434 -0.5244427795186868 -0.6846305802711974 -0.6063309442517967 0.21590990072022595
-0.09489121543659541 -2.426249776948507 -0.11351805224879324 -0.03263436565650644 0.620187185118422 -1.4584640805970606 1.1473585170784848 0.23243681520026363
1.3523304445416973 0.28987805146015677 -1.3756896533284786 0.42655900723448675 -0.6143595571711422 -1.2741104881516785 1.4311636909951089 0.6140111503898389
-0.5129377187265212 -1.247764908170216 0.5667371483037998 -1.2298840480700166 0.22307970738540728 -0.4941545917477253 -0.5533282099829087 -0.2365210812365623
1.0773230322657306 0.6735336777375915 -0.7652346260320338 1.3250429568119868 1.3225337784770852 -0.031728185516002975 -0.12059094232665614 -1.530656255256093
-0.5265712697069492 1.2532369989197538 0.48267121690484294 -0.3202136195839413 0.5881114226034265 -0.14025083475362812 2.4344050349585915 -0.008147307899902291
0.14197645997190075 0.7443132091443837 0.6179018244953143 2.9980831763307463 -0.30031006654530984 -1.1703024912176445 -1.985151736514497 -0.31331649906641523
1.6525275944383393 1.150200569457944 0.5025120379930983 -0.13917568139339698 1.1152211968146881 -2.661656253155188 -0.5438175974147563 2.4773287421459416
-0.020105559751022312 -0.6778883372528512 0.6229503421687455 -0.9962431083797527 -0.6513175856037244 0.6155156216695549 -0.3294903819518632 0.5521138159540971
-0.558616866702924 -1.624091729380097 -2.362567614198663 -0.041119325142786906 -1.3580915981155521 0.7341869307457538 -0.1200308530120373 -0.8314864653955102
1.4662088652513148 -0.3255779231088298 -0.8882997238521143 -1.82371386476512 0.2155151619559603 0.26101461750887994 0.6756455203874113 0.26793613891398643
1.1993753640008729 -1.60034595821703 0.2529931201320247 0.03539598739410967 0.7880183143001123 -0.035439470660287395 0.39422859028766605 0.20407802071000944
0.9713191400835051 0.23787726687148067 -0.1393978995050123 1.6315057522550658 0.08791442143723652 -0.45254868750523314 -0.09992997241388056 -1.2894659289984483
