previous_generated_weights/weights_20250228_172053.npy (npy, 62848 bytes, 1 tensors)

array f8 [784, 10]
0	0x3fff1e3532ad161a	1.9448749522720221
1	0xbff550673c64016e	-1.3321297034272805
2	0xbfecfae06530b7fd	-0.9056245781300728
3	0xbff3b531ec01c30d	-1.2317370623606536
4	0xbfc0475774b44591	-0.12717717359968764
5	0xbf967e16871e4ccb	-0.021965362545938654
6	0xbfd6fc4303360738	-0.35914683641032097
7	0xbff2cdabb5664ffb	-1.1752125821994912
8	0xbfd970c8492449b8	-0.3975086893343831
9	0x3feb9254ca6f18f1	0.8616126970089494
10	0x3fe70e0a9d5def9a	0.7204640458653444
11	0xbfe1f09268c0cf07	-0.5606166883430611
12	0x3feaaac5ae3e7153	0.8333462145997522
13	0x3ff404521d8e9b28	1.2510548739025555
14	0x3fdedb506c682b25	0.4821358736668791
15	0x3fc1e00d8c23d066	0.13965005247848977
16	0xbfd7965ed1c7daa0	-0.36855288015741827
17	0x3ff04438343254cb	1.01665516270923
18	0xbfe555dac093c6f3	-0.6667302857660772
19	0xbff5098f3ffb5232	-1.3148338794027379
20	0xc00285358d3f5572	-2.3150435481026586
21	0xbfe31495b64adabd	-0.5962627945326272
22	0x4005bf34f29c09b4	2.7183627084607114
23	0x3f8422a888d3d1d5	0.009831730533257957
24	0xbfe65adba521d169	-0.6985910630451545
25	0xbffeae035acb8840	-1.9174836680108598
26	0xbfe7aa94c4d33699	-0.7395728916396421
27	0xbfe66e642ee213fb	-0.7009755054174315
28	0xbfe0c824ada42bd9	-0.5244315520698094
29	0xc0033dbb4663d48a	-2.40514235489042
30	0xc001a7b738927943	-2.2068924350452632
31	0xbfe16aee2326030a	-0.5443030058378053
32	0xbfc7ccf87eaaf546	-0.18594270882560177
33	0xbfb8c2aa5125365d	-0.0967203567608634
34	0xc0006dbfdb4d90e5	-2.0535885937734855
35	0x3fd496a655cf4f3a	0.3216949308382372
36	0x3ff65807183439dc	1.3964911408871705
37	0xbfe160ecbe672c51	-0.5430816382225975
38	0xbfa97900ba693c73	-0.04975130343938696
39	0x3fb685856b7a75f9	0.08797487138732397
40	0x3fc2f47a79bc1eb0	0.14808588928302902
41	0xbfd4940b1a229bf5	-0.3215358500696646
42	0x3fd2fa3f2665dfc9	0.29652384519385727
43	0x3ff46aa6566139aa	1.2760375379763027
44	0xbfdf0c786327240b	-0.48513612444782045
45	0xbfe6e0e1ad83ebfc	-0.714951361558064
46	0xbff1022e764d12f0	-1.0630325909743839
47	0xbff1cbca3a9c0c53	-1.1122534074245507
48	0x3fdba1a75cecb81d	0.43174156260181623
49	0x3fc580380c260cd3	0.167975431377363
50	0x40002faefd04a338	2.0232829825439715
51	0xbfc9c5551bc6b4e6	-0.20133460861453684
52	0x3fb4451bd373addb	0.0791795150031968
53	0xbfe6e14b9b98a228	-0.7150018729199177
54	0xbfd5f2217bc77f3b	-0.34290349090405287
55	0x3fe6295aac32af87	0.6925481189004906
56	0xbfdc7fdcaf217c31	-0.44530408003442107
57	0xbfc430713722b4c3	-0.15772834007422007
58	0x3ff2f76e5c002919	1.1854079812788483
59	0xbfe69ca1a06c2818	-0.7066200383426375
60	0x3ffd61d1f84b8852	1.8363818835282655
61	0x3fed615eaaeffa06	0.9181359614011064
62	0x400039b7cd5d14c6	2.028182606127845
63	0x3fe04f0c7a08850c	0.5096495040380957
64	0xbfc03f1a88054e74	-0.12692577020299078
65	0x3fe7e6742f91dd02	0.7468815735909689
66	0x3fcc04c70cdc94f4	0.2188957989502921
67	0x3fef590dcc486bd5	0.9796208372021008
68	0x3fd1920c04a9d428	0.27453899817857286
69	0xbfc2ff0ebef0d7e6	-0.1484087402656648
70	0x3fc6575281ba4278	0.17453986486772854
71	0x3ffad910bc83379f	1.6779944766781012
72	0x3fff2f9ca4df3b5e	1.94912399676442
73	0x3fa661e81a0362b3	0.04371571843666313
74	0x3fede14ce7c5f199	0.9337524916477832
75	0x3ff74130b2068f42	1.4534155801893154
76	0xbf9ad08567adb325	-0.026186069920572614
77	0xbfe23dd06f3edf93	-0.5700456784024815
78	0xbfc044da94591d98	-0.12710125201759293
79	0x3ff2740361726d05	1.1533235365412235
80	0x400144891d46ffd3	2.1584646498958846
81	0x3fe1abae30e8af24	0.5522070842029945
82	0xbfee05b4acfc3697	-0.9381965044610351
83	0x3fc39e5a3ad2b5aa	0.1532700335714428
84	0xbfd5c6afbb29d7b0	-0.34025185849838646
85	0xbffcef814ec9ae13	-1.8084729268692896
86	0xbfe224ee117fca22	-0.5670080510884115
87	0xbff4e3c01ffbdc00	-1.3056031464927855
88	0x3fe8cd3ffac88c82	0.7750549219239391
89	0x3f8244999ad42e1c	0.008919906651974556
90	0x3ff46a478a13ebd1	1.275947131506417
91	0xbff0e9467dde84f5	-1.0569519917265187
92	0xc0050517b1f9b2ba	-2.627486601288493
93	0xbff2ed819ca00920	-1.182984935585928
94	0x3fe610948e673eee	0.6895239621462375
95	0x3fe17c6b9b5c1abd	0.5464380297060739
96	0x40079bed30e64455	2.9511359997054947
97	0x3feb3c06d6343852	0.8510774787589617
98	0x3fe26b778c41e59b	0.5756185283091101
99	0xbfcd7441256cbef9	-0.23011030509359623
100	0xbff12759c4225cdb	-1.072107092046102
101	0xbfadf24d87c7ad46	-0.05848924906225732
102	0xbfd34dc9259834a9	-0.3016226641783058
103	0xbfd05acf4ee582ba	-0.2555425901864897
104	0x3fc8d7db0c7ba206	0.194087391944109
105	0xbfe98500fe7471bb	-0.7974858255216114
106	0xbfd221cd2b509d12	-0.28331307630510694
107	0x4006a0d9698f2401	2.828539681130224
108	0xbfe7da9d76e53d4e	-0.7454364130189022
109	0x3fec776ac0f2df7f	0.8895772713212721
110	0x3fe911cda2508c1a	0.7834232492645044
111	0xbff6b3e85b0c5de2	-1.418922763497783
112	0x3fc8526f3f195bec	0.19001570302017912
113	0x3fd886607b3f16b8	0.38320171390328595
114	0x3fe1a8e73a0b887a	0.551868070000878
115	0xbfd0e042331eefd6	-0.26368765823621965
116	0x3fe9c011268ff6a1	0.8046956780596767
117	0x3fd80543f1119e27	0.3753213743388834
118	0xbf9c14a6f3fc6962	-0.027422531739924046
119	0xbfeccacfa02ac3d7	-0.8997572067511282
120	0xbfdeb5a536d77f9f	-0.47983675342219984
121	0xbfba64e27f1761d0	-0.10310187914672686
122	0x3ffe2bdc18f56036	1.8857079482022647
123	0xbfee840191597190	-0.9536140288214927
124	0xbff248dae3e1be6a	-1.142786874926879
125	0xbfed905b26e80c66	-0.9238715896502867
126	0x3fded465ca689368	0.4817137219090939
127	0xbff2de3012ca528f	-1.1792450651165927
128	0xbfe22d6706601ef4	-0.5680422901650375
129	0xbff9669cb041e37c	-1.5875517735532574
130	0xbfeeb1745693227b	-0.9591619196808802
131	0x3fb6875523ad720d	0.08800251122506371
132	0x3fe502b9c2a892e2	0.6565827180789621
133	0xbfc22b1b1171b596	-0.1419404826332708
134	0xbfe14012538877a1	-0.5390712386613253
135	0x3fc83b5eb862d93b	0.18931182864407411
136	0x3fdb9c9a5b644440	0.4314332859513037
137	0x3ff6502d48ba7542	1.3945744362784613
138	0xbfdb1f787edf55fa	-0.42379581823237766
139	0xbfdcd5ab5f290e7e	-0.45054134648328403
140	0xbfe33c72b23db044	-0.6011289101857149
141	0xbfea649c1631055e	-0.8247814591815474
142	0x3feb30d4035d9ef7	0.8497104707466566
143	0x3fefe0cc7f889cf3	0.9961912623301984
144	0x3fc8b4038c48c444	0.19299358701531066
145	0xbfedc3199de136ae	-0.9300659259403881
146	0x3fc10fdf26151c16	0.13329686507697208
147	0xbfe75ce64c68f6a8	-0.730090283621128
148	0x3fb2e759e6e683f9	0.07384263884752319
149	0x3fea592249c8dc7a	0.8233806077104326
150	0xbff0db91a79744c5	-1.053605703975607
151	0xbfdc1724d306fc7a	-0.4389125881970767
152	0x3fe8e3a2b371e960	0.7777875427994267
153	0x3ff24c25aacd4a3b	1.14359060973642
154	0xbfe4dda40dca2c51	-0.6520557660418352
155	0x3fdba8bbe9d0e138	0.432173708282352
156	0x3fd4e552a22b0ca9	0.3264967521356064
157	0x3fc55645b13fb0d0	0.16669531969762952
158	0xbfe3c736c5a0e4d8	-0.6180681095057947
159	0xbfed92552b09725b	-0.9241128769459225
160	0xbfdd0ef1f8199001	-0.45403718212605787
161	0x3ffda3d27f6c786f	1.852495668171766
162	0x3ff78a88bc85f2b3	1.471321808260808
163	0x3feb4c443691cf80	0.8530598703205072
164	0xc004ceb288adb427	-2.6009264638910454
165	0xbff34cf23cfd60f1	-1.2062857038891333
166	0x3fe580e0d54c2ca7	0.6719822088210962
167	0xbfd72dd7962c638a	-0.36217298188562863
168	0xbfdcd82c23225d4b	-0.45069411688878763
169	0xbff66d64eb9f906d	-1.401707573321825
170	0xbff1ff133a84da6d	-1.124774197187118
171	0x3fd791fc396c3527	0.3682852326172274
172	0x3fcc394c1c752ca2	0.2204985751107858
173	0x3ffc7fe6722ebdc1	1.7812256298310418
174	0xbfa5e270c94f5046	-0.042743229459717244
175	0x3ff84a7abe98f14b	1.5181834645473653
176	0x3fe94edda55102e1	0.7908771733128469
177	0x3fc5c26a5075d645	0.1699955838081896
178	0x3feaaf94fc8932f7	0.8339333469717464
179	0xbf8a8d8bcb885d8f	-0.012965290211510076
180	0xbfe3989d255bfc25	-0.6123796205209869
181	0x3fe96d743acf8e16	0.7946110867164318
182	0xbfe86e9f33ae6af1	-0.763503647747113
183	0xbfff224a14f4455e	-1.9458714312098304
184	0xbfdfa30629070671	-0.49432519919000756
185	0x3ffc1c53b3304cd7	1.756915759998085
186	0x3fb47fd1e3ea05e8	0.08007537664709441
187	0xbff46d90b9db46a0	-1.2767493495961517
188	0xc002ceda1545d4a1	-2.351001897996483
189	0xbff441ca6fb9a010	-1.26606219904534
190	0x3fd362d80e796024	0.30290795720566366
191	0xbff6df26a5e56f6a	-1.4294802170106444
192	0xbffdec5a43112e06	-1.8702032680329252
193	0x3ff39f807e484b0c	1.2264409001260814
194	0xbfe12d8877e4d9f4	-0.5368082372359013
195	0xbfd2f0ea6ca9d9f8	-0.29595432864826376
196	0xbfe6207a9f456aa2	-0.6914647207989513
197	0xbff287ad62fab82b	-1.158124338758635
198	0xbfedd03073eed8c4	-0.9316637291256247
199	0x3ff23763527b5c19	1.1385224554012494
200	0x3ff236c1ea4f1acf	1.1383685257621214
201	0x3ff4f8daf602e26f	1.310755692464365
202	0xbfe7ee93521762d8	-0.7478729823443144
203	0x3fd47ad412aaa240	0.319996851185838
204	0x3fe67e391db6d1dd	0.7029080944399159
205	0xbfd27b39b8f1532c	-0.28877108631904735
206	0xbfe0dd598b2d53e3	-0.5270202368070581
207	0x3ff0ce56dc28e815	1.0503758049003455
208	0xbffa9d1045a0e2bd	-1.663345596300288
209	0xbfde47189791acf2	-0.47308935929932183
210	0xbfcfb99e367c8dd4	-0.24785211239314597
211	0x3fe6c0d8ca886933	0.7110408740730122
212	0x3fdde769176ba478	0.46724917685657585
213	0x3fe44bc44e82c179	0.6342488797582028
214	0xbff1af4abe58241c	-1.105295890362192
215	0xbfb3a2a77cfaaca6	-0.07670065690278935
216	0x3fe69d49e7054510	0.706700278484421
217	0x3fd28d306100375d	0.2898674914621234
218	0xbfb4fab4d4127b59	-0.08195047547859015
219	0xbfcbbec28d0de4ec	-0.2167590321294378
220	0x3fd4bb0b0dbab852	0.323916209609597
221	0xbfe21c06f802b580	-0.5659212917286567
222	0xbfcaf33cafbd4ffe	-0.2105480058768307
223	0x3fe873d0a3f7247c	0.764137573475764
224	0xbfd9ca6892ae282d	-0.4029790337014017
225	0x3fe45e9916ac3d7f	0.6365476076916109
226	0x3ff7bc1a8e6e793f	1.4834237636310517
227	0xbff472aba4b19258	-1.277995723089722
228	0x3fdd08d9606f8a7b	0.4536651078944158
229	0x3fd5a40b1e8cbd4b	0.3381374166810544
230	0xbfa121b08aa4fc94	-0.03346015636861313
231	0x3fe039f967a85db9	0.5070769333423676
232	0x3ff2f06d358e3c6d	1.1836979000106809
233	0x3fe5eae930ab2cd2	0.6849256468352911
234	0x3fd7c74233c735da	0.37153677994214507
235	0x3ffd213ceb02065b	1.8206147365566696
236	0x3fe241e173878b51	0.5705420738635018
237	0xbfcf71dfa2388810	-0.24566264553965356
238	0x3fdfa9780327e0e2	0.49471855457478686
239	0xbfe49efade55305d	-0.6444067327916049
240	0xbfeb711108685c77	-0.8575520672046782
241	0x3f9cc06f4d4ed188	0.028077830403803655
242	0x3ff41c6ebebd94af	1.256941552238725
243	0x3fd7fc8c1ccac610	0.37478926479079266
244	0xbfdc3171efbb030f	-0.4405178872221293
245	0x3ff9918e0a02cb51	1.5980358496714937
246	0x3ffd3b0bb4f897e6	1.8269154614622436
247	0x3fed155ed2a0fb76	0.9088586915821526
248	0x3fe9d6908ca6bd1c	0.8074419734092859
249	0x3fd5377cc745917f	0.3315116830838391
250	0x3ffd8fb1d0ce7508	1.847581687593733
251	0x3fdad3c499253561	0.4191752906379716
252	0xbfb1b22491bbb24b	-0.06912449415148918
253	0xbff420d230769d1d	-1.2580129521464365
254	0x3fcd506bf84e776a	0.22901677727071085
255	0x3fe9ea5722065e7f	0.8098560013340402
