previous_generated_weights/weights_20250228_172217.npy (npy, 62848 bytes, 1 tensors)

array f8 [784, 10]
0	0x4000cdf74e4efb21	2.10056935480624
1	0x3f737a81f1024076	0.004755504211189634
2	0x3fdd99811e42f022	0.46249416308615043
3	0x3fd2c2d6ae0daeee	0.29314200398833534
4	0xbff6833189a48971	-1.4070296646756015
5	0xbff41405a5e0a4c8	-1.254888198813477
6	0x3fcc2513e7534bf6	0.2198815230863997
7	0x3fde4a01cea41860	0.4732670324305044
8	0xbff454f5d61210fa	-1.2707422601825429
9	0xbfe4454b5518efb0	-0.6334587728556382
10	0xbfa636be1ce60c62	-0.04338640311018406
11	0x3ff5953279413654	1.3489250885499091
12	0xbf7d0b2030058450	-0.007090688450575547
13	0x3fd42702923d76b1	0.3148809841276075
14	0x3fe0bf348ae2eb24	0.5233404839158067
15	0x3ff0f338c8342dfc	1.059380323454092
16	0x3fea956f235e87b0	0.8307414713674373
17	0xbfdcb4d389815611	-0.4485367625069055
18	0x3fd53269b3b4e6b1	0.331201959128161
19	0x3f9cf3c8742ec013	0.028273708430504096
20	0x3f94f4ecb98d8dbc	0.02046556360745709
21	0xbfefd7499bad3cc8	-0.9950302162705151
22	0x3fc2f0cfe3c57abd	0.14797400113726225
23	0x3ffafc274b9a6ea9	1.6865609124423975
24	0xbfd2339dd42fb43e	-0.28440042229960116
25	0xbfecdcf09250c7f8	-0.9019701822019206
26	0xbff2f6213e1918b7	-1.1850902963356427
27	0xbfda31764773bf1a	-0.40926892259357006
28	0xbfed781ee6cd86eb	-0.9209131725185363
29	0xbfea67cc4f30da94	-0.8251706644721986
30	0x3fa877d46b569747	0.04778922853738137
31	0x3fd4fd6baa862f83	0.3279675641322159
32	0x3fc2994495e28293	0.14530236548036565
33	0xbfd9ef90f7ff629b	-0.4052469655849024
34	0x3fe087d9744a2b4b	0.5165831824573187
35	0x3fd0cb1345b98547	0.26239473160793064
36	0x3fcf6169b3375dbd	0.24516030550760873
37	0x3ff9221d6a600bfa	1.570828834083612
38	0xbffa216b0d778ed5	-1.6331587339454263
39	0xbfd0dd1c0adb3cf2	-0.26349545536227403
40	0xbfcc8f20460de7fd	-0.22311786099072597
41	0x3ff43bd77fa1f6e4	1.2646098123217877
42	0x3ffb8aabf054f5ea	1.7213553798641166
43	0xbff96039f5bcc0b4	-1.5859927748788722
44	0xbfeb96fd08e3301a	-0.8621812032301961
45	0xbfd0202488607345	-0.25196183507960185
46	0xbfeec2982c85189e	-0.9612542027978355
47	0xbfed3877ae0e4ee1	-0.9131430053261874
48	0x3fc0921d57f6fc9b	0.12945906443744523
49	0x3fe8ff5407f40624	0.7811679988228133
50	0xbfe04e31267c642a	-0.5095449210813332
51	0x3fda310818903dd0	0.40924265288137196
52	0xbfee7ebc58a3c8dc	-0.9529706698652052
53	0xbfd75449f713e18d	-0.3645195877902772
54	0x3fec5f0823febc87	0.8866005614307974
55	0x3fe5414217a117ae	0.664216085577882
56	0xbfe5f2b221b573c0	-0.6858759554266882
57	0xc00750da26400780	-2.9144785869875136
58	0x3fc20520a7ac8c24	0.14078148066718754
59	0xbffa2f57aa7baed4	-1.6365582141397015
60	0x3fe5c7cb92021df5	0.6806390620922104
61	0x3ff97125dccad0f6	1.5901239990899376
62	0x3fd4eb1dec419729	0.3268503958882883
63	0xbfc7671029e4d7fe	-0.1828327374038849
64	0x3fec9af6c67c006f	0.8939164997718886
65	0x3fd84bbec8946e0d	0.379623123053279
66	0x3fff1487fb57fdc6	1.9425124948610217
67	0x3fe59abd47708de7	0.6751390834146463
68	0xbfad2cd336ae22c2	-0.056982613015013964
69	0xbff7e89f031ca35d	-1.4942922708089192
70	0x3fcffc0aff4b2cb0	0.2498792406607655
71	0x3fd1b7e6ecdd120c	0.27684949046332075
72	0x3ff19febf517a85d	1.101543385879743
73	0x3ff207318847d44a	1.1267562221012377
74	0xbffbcfce4672b38b	-1.7382338287236248
75	0x3fed1f47caea143d	0.9100684130832019
76	0xbfc8847f490f45a1	-0.1915434939133265
77	0x3ff61a6088fc6552	1.3814397192966976
78	0xbfe7cfc25a5abb52	-0.744111229394415
79	0x4000b745fba66e1f	2.089488950745149
80	0xbff76985d886f934	-1.4632624109359087
81	0xbfead6dc2d787c54	-0.8387280357454849
82	0x3ff0dce815f4c369	1.0539322717342776
83	0x3fdf34526753a2e8	0.4875684746789788
84	0xbff07504155cd547	-1.0285683474042615
85	0xbffe95ebf7fc8477	-1.9116019904106716
86	0xbfdde0f534ad24da	-0.4668553366105478
87	0xbfb912edebadcd9d	-0.0979450893772111
88	0x3fea7e5a286b54b5	0.8279238500059792
89	0xbff99bdfecdbd0f6	-1.6005553486148165
90	0xbff7b8cc499b22f8	-1.4826166987642733
91	0xbfe4f1bf66880258	-0.6545102121891189
92	0x3ff32a6eb22272e2	1.1978594740277733
93	0xbfd3d939f2ffa3da	-0.3101334450753349
94	0x3ff02b9ff6a562a6	1.0106505999193955
95	0x3ffeb68690ea1d6e	1.9195619259570225
96	0xbff1a2956725325e	-1.1021932629693292
97	0xbfe4850c57e650f5	-0.6412412373342976
98	0x3fd036ded38c290d	0.2533490243810242
99	0x3fdc03631c279dd7	0.43770673512923736
100	0x3fc9551b1b4addd8	0.19790972550047914
101	0x3ff4773c6c718b9b	1.2791103588176387
102	0xbff1aa4251801e7e	-1.1040671523677754
103	0x3fecda1992395422	0.9016235214172676
104	0x3fe7a9f81da28d53	0.7394981936271655
105	0xbfe5b45c36ecd1a8	-0.6782666275744775
106	0xbfd064d9d45468f2	-0.25615545020413244
107	0x3fa03e61690af62f	0.03172592551480268
108	0x3fddfc666e6b70c3	0.46853028090641774
109	0x3fe2d4e7ec2bb7f3	0.5884894955358945
110	0xbfea96bdf63cd215	-0.8309011277511354
111	0xbfea36ec65d06b49	-0.8192045200879444
112	0xbff31560e68c094f	-1.192719364713941
113	0x3ff29dbe45fa1ea5	1.1635115369298685
114	0xbfb8dd87323041dc	-0.09713025069527909
115	0xbfd7e0666a762cdd	-0.3730712928451803
116	0x3ff03e37246328bd	1.0151893063908084
117	0x400037fb99ff8f73	2.0273353606334523
118	0xbfb98949acb9caf4	-0.09975109545647937
119	0x3ff1053bee4c04c5	1.0637778576349757
120	0x3ff2ba1f9165ddf3	1.1704402618032617
121	0x3fe1233dbd39ae49	0.5355519004637667
122	0x3fd6766edd0f36db	0.3509785803588394
123	0xbff79d6ac85a8fdb	-1.4759319139784484
124	0xbfd7fdab5a4d6e3c	-0.374857748208999
125	0xbfd4cfea722ae871	-0.3251901736181316
126	0x3ff232ba314ab0e3	1.1373845982989728
127	0x3fe0f8a579ed0817	0.5303523427357985
128	0xbfd85db1e06bcf36	-0.38071867862821607
129	0xbf9e6e3e1038ba5a	-0.029717416515433782
130	0x3fe22b3c8d478be6	0.5677778968205274
131	0xbfd1e7b9f7f730ff	-0.27976845946683676
132	0xbff81b446d258ed2	-1.5066570533316974
133	0x3feb7a82678a6c73	0.8587047598151812
134	0x3fe8828b5afefd9a	0.7659355904833547
135	0xbfe3d0feed8769b5	-0.6192621840703426
136	0xbff027b1f8816035	-1.0096912104836637
137	0xbffb0bd733692e83	-1.6903907783734275
138	0xbfb55a24d19d6f67	-0.08340673558762789
139	0x3ff34425eb839bae	1.2041377258080774
140	0x3fe31611b2951d2b	0.5964439857424727
141	0xbfeab2fbb68af601	-0.8343485417642001
142	0x3ff31db241bafa00	1.1947500770180568
143	0x3ff65d1a14c7c665	1.397729951070141
144	0x3fef917c34fbdfcc	0.986509421810291
145	0x3ff5288866768d07	1.3223957064117842
146	0xbfd0e38634eebd90	-0.2638869778556563
147	0xbfd3910685048dfd	-0.3057266520501967
148	0xbfdee0b82d18244c	-0.48246578601589785
149	0xbfd3ac41386edbb9	-0.3073885966400059
150	0xbffc7108dd8c0851	-1.777596345346428
151	0xbfeb22645798d594	-0.8479482375029641
152	0x3ffcac0ebfb6d36a	1.7920062531313428
153	0x3ff7993cb7bfac8d	1.4749114206013332
154	0xbfe9680e6570f9e4	-0.7939521771693845
155	0x3ff1b4e6fa102373	1.1066655891501938
156	0x3ff05e2166a7daba	1.0229810724246549
157	0x3fd26684616dae13	0.2875071479272446
158	0x3fe1a1d996a10465	0.5510070745441565
159	0x3fdfc32c5ae67bdf	0.4962874305437576
160	0xbfc8c7da4f2f37ea	-0.19359902254512856
161	0xbfe8fec16d7b0151	-0.7810980928698347
162	0xbff2f98eea080858	-1.1859273092127491
163	0xbff454f48f1d13ea	-1.2707410421728533
164	0xbfe470173e7be910	-0.6386829586402047
165	0x3fface682213e1d9	1.6753922778281007
166	0x3fdee74e20a4d639	0.4828677481449151
167	0xbfd0aa0ec30b5c9f	-0.26037949607184346
168	0xbff38eb9d0af620e	-1.2223451759110762
169	0xbfc2fbcf1ff10d6c	-0.14830960330628373
170	0xbfdf486d8b292631	-0.4887956484786598
171	0x3fed1f1fd4530f5a	0.9100493571245167
172	0xbfe98582f403af53	-0.7975477949052937
173	0xbffadb60d44dc1af	-1.6785591405024254
174	0xbfe4dd134e37f69e	-0.6519867446620145
175	0xbffe3b56b5019bdd	-1.8894869871671667
176	0x3fc5ef5246e8fa5b	0.1713660093536927
177	0x3fdec3192be9195d	0.48065785682810774
178	0xbfe84a8fc338bd6c	-0.7591017544672645
179	0x3f84cbcbe175479d	0.010154335802017129
180	0x3ff5c069e46b33cd	1.3594759867294102
181	0xbff115148547b523	-1.0676465231184202
182	0xbfe7e86ff1fb76c8	-0.7471236921516828
183	0x3fe54f558c863f22	0.6659343475930408
184	0x3fed035ab7cd1203	0.9066594686378838
185	0xbfd8246833c07635	-0.3772221093548496
186	0xbfe0f6ae1727e605	-0.5301123096716657
187	0x3fd56ce46a649438	0.33477125539713226
188	0xbfe77527d0d15912	-0.7330512121650676
189	0x3ff9872145c7a574	1.595490715577708
190	0xbff2fbb05cd46e5a	-1.1864474893726737
191	0x3fde0f30e14f3737	0.46967718127131114
192	0xbfedec0e0cf1d2ec	-0.9350652935814572
193	0xbfef4089700aadb4	-0.9766280353846271
194	0x3ff4f42fd7ec1d65	1.3096159395662081
195	0x3ff850dec190bbc4	1.5197436867854188
196	0x3ff276f3cb154862	1.154041093152522
197	0xbffedff7034cb7ab	-1.9296789292234091
198	0x3ff941e16f16c8d6	1.5785841311849729
199	0x3fe045add3f36a7a	0.5085057391800796
200	0xbffe88341e554d0a	-1.908252829064454
201	0xc00180acedbdc05f	-2.1878298352749392
202	0xbff0f9d363ee7981	-1.0609926131797638
203	0xbfeea40bb6cef8fb	-0.9575251169660811
204	0x3fe1fc18609b2192	0.5620233427844588
205	0xbff40227ad51de97	-1.2505261202149194
206	0xbff2c2bab3b1c8c2	-1.1725413340869157
207	0x3fd6d1fb8ce9d40c	0.35656632195542737
208	0xbfd50007b624c8cc	-0.328126838564583
209	0x3ff83e99372c3e0c	1.5152828364551878
210	0xbfe08bbbaa03ba62	-0.5170572586628845
211	0x3ff20f4eeb24ffc7	1.128737371953308
212	0xbfe0ab757cc306c3	-0.5209300457720122
213	0xbfedf361dad39526	-0.9359597467379543
214	0xc001311649a9d59c	-2.1489682917551374
215	0x3ff742bf749c7fa8	1.4537958674554634
216	0xbfc95704e990c752	-0.19796811489646388
217	0xbfb85b55c07b7ad5	-0.09514366101528123
218	0x3fd7ed4b6dbebbe4	0.3738583156327293
219	0x3ffdcff6b984c9b1	1.8632724043678588
220	0x3fe8e28ba8f3dd46	0.777654485688722
221	0x3fdd7bf3aef75899	0.4606904228834395
222	0x3ff4079f273050c8	1.251860764580714
223	0x3ff184232f525e12	1.0947601173883226
224	0xbffa236546a92be4	-1.6336415062130465
225	0xbff9d70d4da37ef0	-1.615002921367644
226	0xbff2124e932aea4c	-1.1294694660888522
227	0xbfe2f624106977c5	-0.5925464935823973
228	0xbff0d599b845e069	-1.0521485517656635
229	0x3fd105bbd79121bf	0.265974960817882
230	0xbfeb5392f47ffb42	-0.8539519095792019
231	0x3ff051dc5f66e9f0	1.019985554374781
232	0xbfefeea7db2aa2f9	-0.9978827744099298
233	0xbf69fc6985b99fcb	-0.0031721173270859763
234	0xbfef3f1c716dbf4e	-0.9764539924053481
235	0x3fbfb2eb42afb1de	0.12382383707126318
236	0x3ff58cd2d1a816bc	1.3468807401381317
237	0x3fdc7b3ad496eac3	0.4450213504857567
238	0xbfdd09287afa6e3c	-0.4536839676818294
239	0x3feb1532bd3d54d4	0.8463376709065877
240	0x3ff268596fda48c0	1.1504759186978362
241	0x3ff84f1c0ee5b2a8	1.5193138677524676
242	0x3fc6736985327dc4	0.17539710048457213
243	0xbfed578ec2c8ac91	-0.91693819087722
244	0xbff889b54f887672	-1.5336201769599964
245	0x3fedf6630eaf093d	0.9363265311042493
246	0x3fbe0277e059e78a	0.11722516276668507
247	0x3fe8f68d9300170f	0.7800968047237989
248	0x3fe51951c2863587	0.6593407439519731
249	0x3fe37c45ddc8ba92	0.6089200336189882
250	0xbf908aef4eb566c8	-0.016154994181625054
251	0x3fc47604b1999ba2	0.15985163375736727
252	0x3fc4daf3a385295e	0.1629318760336202
253	0xbf9424900f3d889a	-0.01967072575588045
254	0x3ff6fa6386bfe85f	1.4361300719888488
255	0x3fd38f30f7169630	0.30561470155439263
