previous_generated_weights/weights_20250228_172000.npy (npy, 62848 bytes, 1 tensors)

array f8 [784, 10]
0	0xbfe93060456985ad	-0.7871552806574776
1	0x3fd2a691eb07122c	0.29141662551799885
2	0xbff939e7946a0a30	-1.5766368672781361
3	0xbfe0bd2864d83aa5	-0.5230905503866167
4	0xbffd4fb6c47a9a38	-1.8319614100415844
5	0xbf88f934f0364600	-0.012194074230850838
6	0x3fcbd04713a2b65c	0.2172936292530946
7	0xbffb764328a2dfda	-1.716372641310946
8	0xbfd45bb5872a8717	-0.3180974788648298
9	0xbfce48f7682db8f3	-0.2366017588314616
10	0xbfea0f4ad8024657	-0.8143667429851104
11	0xbfe39178799b43fb	-0.611507642281253
12	0xbfef58c10405a83e	-0.9795842245632753
13	0xbfe852e8c9b1c92d	-0.7601207675309404
14	0xbffe954a084d4789	-1.9114475559513002
15	0x3faa68dd21f17926	0.051581297296012615
16	0x3f5b48fdd302ed5b	0.001665351748711816
17	0xbfe4d7bb7c63b8a0	-0.6513345174296497
18	0x3ff9a03aea11c7fa	1.6016186850870313
19	0xbfefa630389d2687	-0.9890366655101425
20	0xbfd4d6dc0a56ef73	-0.32561398515439705
21	0xbfd92b233eefb746	-0.3932579149830996
22	0x3fee3b9de1357172	0.9447774313553465
23	0xbfd0ff0b639843fe	-0.265566680202994
24	0xbfdfa5e889a44e01	-0.4945012420805313
25	0xbfc89440383fc9e6	-0.19202425715009425
26	0xbfc95177b08d787c	-0.1977986919473017
27	0xbff070fbdb99faa4	-1.0275839403326836
28	0xbfd1df20de52802c	-0.2792436762920285
29	0x3fc0c69e3878db87	0.13106134183336968
30	0xbfe7a13c0d140612	-0.7384319549020708
31	0xbfe0ad7c6a63e770	-0.5211774900374007
32	0xbffc568355532571	-1.7711213429450618
33	0x400282cd36f3112d	2.3138679783752623
34	0x3fcc3e8e07a265fd	0.22065902111789618
35	0x3fe61f3e985f6d63	0.6913140274076962
36	0x3ff318fe02405eb1	1.193601616663653
37	0xbfe3fe2c3e50ba73	-0.624776956281336
38	0x3fc89aee46994a60	0.19222811171728704
39	0xbfe393ba22329771	-0.611783091346963
40	0x3ff2eaa00a1ece0f	1.1822815318417985
41	0x3fecc86938d4514f	0.8994642362545536
42	0x3fcd1716975b914e	0.22726709738266
43	0x3fd7faaf7ebf3cd1	0.3746756303562054
44	0x3fe541e3a35042da	0.6642931165425481
45	0x3f5d518f042b5ce6	0.0017894646304535355
46	0xbfdda5dd0ea6b012	-0.4632485049321541
47	0x3fd239ca7388e488	0.28477727205933734
48	0x3fd7c5c7a63aa8b2	0.3714465258914387
49	0x3fc5a581dc83e7fb	0.1691133810743962
50	0xbff849339fad54b5	-1.5178714978585905
51	0xbfdef4628cbbcf00	-0.4836660742141561
52	0x3fe788371eb72714	0.7353778457556666
53	0xbffcf039904b6fa5	-1.808648646975578
54	0xbff7575840d1ba2c	-1.4588243991853558
55	0x3fdda14b4b563eee	0.4629696117126362
56	0xbfeae96a2497d95a	-0.840992995711342
57	0x400e94e6992e3abe	3.8227054564698326
58	0xbfff68232b9333db	-1.9629241659306362
59	0x40052872cb576c3c	2.64475020275634
60	0x3ff51b31053781e0	1.3191385463506933
61	0x3ff6dd00c997e54c	1.4289558291187232
62	0x3ff2135eddaacf39	1.129729143035503
63	0x3ff0783219ff9bb9	1.029344655567668
64	0x3feeef1fc6c24ddf	0.9666899568568929
65	0x3fd119c8242718e4	0.2671985962919179
66	0xbfd814f847aaddce	-0.3762798976781284
67	0xbfd3d106b90cc513	-0.30963295050885725
68	0x3fe2bcad4c575ffd	0.585531853775137
69	0x3ff8b1ec89ea1346	1.5434384715346865
70	0x3fd0b9e2cae2efac	0.2613455754578762
71	0x4001f7fe9a0db80e	2.2460910830914207
72	0xbfe2ba5122c78c2b	-0.5852437667166489
73	0xbfd897ba20906316	-0.3842606847770623
74	0xbfed13de2c4cc663	-0.9086752763016189
75	0x3fc1f996b520ff67	0.14042934269127302
76	0xbff83c256924eda5	-1.5146841151425658
77	0x3fecf042c13d4078	0.9043287061886209
78	0xbfe22dc87aae03e3	-0.5680887600029759
79	0x3fd5283d03350322	0.3305809527701503
80	0xbfe2347502128da6	-0.5689034500577932
81	0xbff193e51c53f2d1	-1.0986071688231969
82	0xbfe7fd702f6a18e2	-0.7496872831404995
83	0xbfec0bb20a36d254	-0.8764276694769912
84	0xbfd26a22e7b0e551	-0.28772804857324724
85	0xbfc508f58cdd78dc	-0.16433591249637558
86	0x3ff48da5e0d13cbe	1.284582021897037
87	0x3fe4d63460546226	0.6511480218351309
88	0xbfb8e309c4ce848a	-0.09721432738162342
89	0xbffd504029dd5332	-1.8320924411138546
90	0x3fdae4b529920ded	0.42020920810338575
91	0xbffb04c66a1677a2	-1.6886657852223625
92	0x400013cb22c798e8	2.009664794651247
93	0x3fdf2f4e352c5a32	0.4872622985143692
94	0x3fb3d90153da1778	0.07752998635450392
95	0x3ff3b69e4621b69c	1.2320845355529064
96	0xbff03d8597585e65	-1.0150199806138513
97	0xbfccdb5576f4a669	-0.22544353779203455
98	0x3fef8a38d341748d	0.9856227995002357
99	0x3fe72345dc0ea45b	0.7230557725898835
100	0xbfe959a664c3809d	-0.7921936004677438
101	0xbfd0e5c704d4dfac	-0.2640245005782116
102	0x3ffa9ee6de0477d9	1.66379439092224
103	0x3fd3927e668696ce	0.30581626903800163
104	0xbff3c1af4212b2f9	-1.2347862797716387
105	0x3fdb8ca0b44525be	0.43045823673727657
106	0xbff5d55876569f77	-1.3645863173096282
107	0xbfd912c5b51f64dd	-0.3917707699561797
108	0xbf979105d3f714af	-0.023014155447317716
109	0x3fe17810a823b142	0.5459063800786128
110	0x3fe11901348bb6c2	0.5343023325237584
111	0x3feed00791f66b7e	0.9628942347365947
112	0xbfd962bd9d59e2cc	-0.3966516529685975
113	0x3ff40e5d2fa65e4b	1.2535068379710477
114	0xbfcd8f4a58536bb4	-0.23093537628923644
115	0x3f7276d5a6f1f888	0.004507860735541887
116	0xbff72b993a6efbe7	-1.4481441767272771
117	0x3fddbb78fcb75c4f	0.4645674198085929
118	0x4000dc4805d0ca33	2.1075592474310496
119	0xbfd80cfd9a907983	-0.3757928857247849
120	0x3ff02539d28c9640	1.0090883469178067
121	0xc0068e5b33252ac1	-2.8195098872868987
122	0xbfea110b8c4effbf	-0.8145807018663546
123	0x3fbf3c5c7214ac89	0.12201478753256557
124	0xbfb73a225fcc2f8a	-0.09073080862816432
125	0xbfe4cd23bf5d726c	-0.6500414598081767
126	0xbfe219b34c35d426	-0.5656372536165051
127	0xbff44dcb816d486a	-1.268992906163954
128	0xbfd35ac9c9bb6c74	-0.30241627407458016
129	0xbff24785a301653d	-1.1424614303017073
130	0xbfe202d20cce2943	-0.5628443002799844
131	0xbff80e7fec0467fa	-1.503539964620812
132	0xbfdb8369b9f06e13	-0.42989581258891113
133	0x3fb95e869c0fb319	0.09909859953013402
134	0xbfc7085f3dc5cc58	-0.1799429942726387
135	0x3fded2022f5e5f1b	0.48156790376514075
136	0xbffded4f762f3af0	-1.8704371086675415
137	0x3fc0736338256549	0.1285213493490949
138	0x3fee359fe360daa6	0.9440459671958095
139	0xbff0f8ac9fd9bd91	-1.0607115024721205
140	0x3ff796a34506a1bc	1.4742767998051098
141	0xbff4980fc79a6373	-1.2871244236941635
142	0x3fdf5a0f34a3c964	0.4898717893658129
143	0xbfab30c13fc30336	-0.05310634520856754
144	0xbfe05872849c3b9a	-0.5107967939419382
145	0x3fe7c6044906a6e8	0.7429219652451282
146	0xbfef57f453f6a27d	-0.9794866218481527
147	0xbfcbb2f76630a1f4	-0.21639912118668259
148	0x3ff6d5edb94d5651	1.4272286642420975
149	0xbff232e001964256	-1.1374206602087233
150	0x3fbfd323a617ef24	0.12431547932640946
151	0xbfe3ef61d555fc8c	-0.6229714552608967
152	0x3ff9956d9698dfcc	1.5989814646436455
153	0x3fe8f833bf81a1d3	0.7802981129034897
154	0x3fa1e28b4117f1e9	0.034931518264759216
155	0x3ff175af300c9084	1.0912315251271432
156	0xbfe399071a6c22d3	-0.6124301448881745
157	0x3fe5279cb223862b	0.661085460593488
158	0xbffcffe839865e5a	-1.8124773261132732
159	0x3fed1c814e739947	0.9097296268708214
160	0x3fead315d1091d2d	0.8382672388769713
161	0x3f8fd3e586d3d767	0.015540879418476995
162	0xbff9a5ceb3c0f14c	-1.602980329668827
163	0xbff4be0f857a01e6	-1.2964015211037974
164	0x3fc2a5cf41cec53f	0.14568510735765902
165	0xbfee395bfe39ddc0	-0.9445018735267965
166	0xbff5e06ee0b0ad39	-1.3672932412108152
167	0xbff22d707162bc20	-1.1360935620430226
168	0xbff588a3423ec4e4	-1.3458588206961446
169	0x3fed7c6490cdb675	0.9214346721834789
170	0x3feae24f8785c152	0.84012581319079
171	0x3feacd8ff1f4b4e2	0.8375930524540787
172	0xbfe07953c4ff144e	-0.5148104522310264
173	0x3fcd32a4f640b2dd	0.22810804390009923
174	0xbff930d3f2b379ea	-1.5744208794127368
175	0x3ff132622dbf0b81	1.074800661751141
176	0x3fbbd3b1b53321ae	0.10869894670316313
177	0xbff1a3baf1b4a24f	-1.1024732057213844
178	0xbfcd9c1c67f187b0	-0.23132662845006058
179	0xbfe0fc15c9d277f3	-0.5307721082533575
180	0xbfe7c800620ae73d	-0.7431642451185564
181	0xbfe942a1803bb0ab	-0.7893836502603525
182	0xbfd29efdc559f263	-0.29095405838578453
183	0xc0028819104d6af3	-2.3164540551782635
184	0xc000625a86635ddb	-2.0480242251467025
185	0x3ff0c7ff902cd28e	1.0488277084197395
186	0xbfdeeae187185836	-0.48308599655991047
187	0x3fe9042c8e81a780	0.7817595275239313
188	0x3fe297965a2e9e47	0.5810043107384865
189	0x3fe21f5f800a58ac	0.5663297177113882
190	0xbfd51fa7482d8bc8	-0.3300569729673808
191	0x3fdcd7a6c57a150b	0.4506623199925605
192	0xbfd8a789644041f8	-0.3852256278051125
193	0x3fd3b1041bd8980c	0.30767920226424006
194	0x3fe44547f1f679fb	0.6334571576915659
195	0xbfea6671d7cb4c33	-0.8250054564217691
196	0xbff292f65c271c0a	-1.160879478427662
197	0x3fe233c0d8041b98	0.5688175410331153
198	0xbfe2088f509e3cbb	-0.5635449003765624
199	0x3ff7b5a39c10548d	1.4818454834214976
200	0xbfead98239da0c2f	-0.839051354400345
201	0xbff826a24752f673	-1.509432104692135
202	0xbff0d93db194791b	-1.0530373512952511
203	0x3fd9ad7848a69498	0.4012127599219837
204	0x3ff19dc59e1073c8	1.1010185408006112
205	0xbfc1b73fbab525a6	-0.13840481392462073
206	0xbfcf761652ab492f	-0.24579123531891287
207	0xbff853b64095cf69	-1.5204374811991903
208	0xbfd5b04976dd35bd	-0.3388847027570952
209	0xbff6afa02ee41cca	-1.4178773719484519
210	0x3fe6265ef63f941f	0.692183953241173
211	0x3ff3f10899954ad8	1.2463460921614367
212	0x3fe44dcc1d15a51e	0.6344967430169708
213	0x3fea95c99045fd07	0.8307845895614329
214	0x3fbece87ffed0be2	0.12033891676132627
215	0x3ff5f27f8120d4a5	1.3717036289283808
216	0xbfd445daa3e3666b	-0.31676355366435044
217	0xbfede6656ef5b87f	-0.9343745391067982
218	0x3fea4e291572fb28	0.8220410746506319
219	0xbfbac79a566afde6	-0.10460819825947673
220	0x3fd4076b5068b471	0.31295283176843386
221	0xbfe89bd0d3981adb	-0.7690204746912416
222	0xbff9ca13f72019a4	-1.6118354466758342
223	0xc00662fe4152ba71	-2.798336515748183
224	0xbffbd1bc4897963b	-1.7387049518232647
225	0xbfeec8fe011bfad9	-0.9620351812044091
226	0xbfea7c0f3c3d7258	-0.8276439835131653
227	0xbfa6f1e8e48cd522	-0.0448143748275618
228	0x3fffe736a6ac54d9	1.993948603694028
229	0xbfca9dc2605e6b0c	-0.20793943124302705
230	0x3fd5212143eadccc	0.3301470912223976
231	0x3ff8f93af21fc6d7	1.560847230718016
232	0xbfeacc099ef58f4d	-0.8374069313690399
233	0x3fe377292e1a9ba5	0.6082960033862618
234	0x3ff42e420f8b015a	1.2612934691570303
235	0xbff952ea74a0708e	-1.5827431255084181
236	0xbfb11925b9523efa	-0.06678996824689057
237	0x3ffaba92e5647218	1.6705502472533507
238	0xbfe4fb7c2a308595	-0.655698854829256
239	0xbfc75f38cad35dd6	-0.1825934400901434
240	0x3feec73202585915	0.9618158384135166
241	0x3fece1b1ad659791	0.9025505434662923
242	0x3fdf713c11b03310	0.4912862942444898
243	0x3fcd72a359ee950b	0.23006097689827984
244	0x3fb271f61fa2ec45	0.07205141327260474
245	0xbffb2da5216b57b3	-1.698643808883827
246	0xbfcdba320c7808e2	-0.23224473580200483
247	0x3fcd9abc4ba0876c	0.23128465359428263
248	0xbf9ba6f9cf76db93	-0.027004149711241942
249	0xbfd745ccc57f439b	-0.36363524710491796
250	0xbfc78878338997e3	-0.18385221973875251
251	0xbfe07345bf2d8a0c	-0.5140713437979811
252	0xbfc3a8b83d0c8a1d	-0.1535864160624251
253	0xc0003ddae5851c64	-2.030202668308947
254	0xbff27281bffd920b	-1.1529557704571995
255	0x3fe51f310ea112ec	0.660057571957251
