previous_generated_weights/weights_20250228_172147.npy (npy, 62848 bytes, 1 tensors)

array f8 [784, 10]
0	0x3fdad6f6b19db397	0.4193703398257695
1	0xc0027b61abaf5373	-2.3102448857193223
2	0x3fd8f9c834c52796	0.39024548676808857
3	0x3ff18ab4bee35509	1.0963637787402283
4	0x3ff7a00aa4797f14	1.4765726494587783
5	0xbff74968c28168d4	-1.45542217234338
6	0xbfe4def3f00f8362	-0.6522159279521527
7	0x3fdd4a2b88a1fba6	0.45765198081056224
8	0x3fcb117334fb2b21	0.21147003256768307
9	0x3fffbe2e60632933	1.9839309468394049
10	0x3fe6178d16f77dc2	0.6903748940057357
11	0xbfd59e1fdb3738c1	-0.33777614982399135
12	0xbfd60d4e1433b354	-0.34456207249495674
13	0xbff504ec8d312d65	-1.3137021556202282
14	0x40008eea93cfd735	2.069783358364385
15	0x3fe88ae1fbc4d1fb	0.7669534604415839
16	0xbfd4a6d137a9aae9	-0.32268171726052103
17	0xbfcbff077bb7fe73	-0.21872037449792323
18	0x3fd13f0aface9a18	0.2694728326117981
19	0x3fe2618e4825a90a	0.5744086655734304
20	0x3fe5cf805ed63678	0.681579766490997
21	0x3feda02180404cfa	0.9257972245126489
22	0x4003a06d376a1d90	2.4533333138712763
23	0xbfb560e282bbccde	-0.08350959483850626
24	0xbfe9af5ab561a4c2	-0.8026555578809609
25	0x3fc8689671bdc2b2	0.19069176248333047
26	0xbfd062f2e1ec21da	-0.2560393530152659
27	0xbff4cf5baf308b47	-1.3006245463700041
28	0xbff51c1875fd800d	-1.319359265231472
29	0x3fe7ff5dd1e2159f	0.74992266648103
30	0x3ff065f2920b3446	1.0248895363649964
31	0xbfd85796f29b04d1	-0.38034604732463345
32	0x3ff4cb080a7ba736	1.2995682153218246
33	0xbfcde821a8b9b610	-0.23364659060045812
34	0x3fe12ea1855e0bc9	0.5369422535735505
35	0x3ff34ae431602045	1.2057840279321834
36	0x3ff676ee457dc86b	1.4040358271127171
37	0x3fbb05bc7180297c	0.10555627604495571
38	0x3fe02023a60c2933	0.5039232485881143
39	0x3ff3f1144227f736	1.2463572105620648
40	0xbfe023d8ea496b8b	-0.5043758941568383
41	0x3fe7d7961a787573	0.7450666920664574
42	0xbfb422a9d418a472	-0.0786539213956006
43	0xc00209e24dbf3f31	-2.2548261713017372
44	0xbfe1a0ab2843b5b8	-0.5508628641525126
45	0xbfe82a4b98ac59ad	-0.7551630002879414
46	0x3fd38dc53d00c703	0.3055279823048382
47	0xbfe885ae388441b9	-0.7663184264984501
48	0x3feb939697d33bd3	0.8617661443075754
49	0x3fe851ef37b1488d	0.7600017631287003
50	0xbfd97edcee44e593	-0.3983681036803201
51	0x3fc0340fd90a1831	0.1265888032687044
52	0x3fec96d64a130647	0.8934127280010181
53	0x3ff63bc4e2ff83ee	1.3895920626748608
54	0xbff168530592a6cd	-1.0879698007287744
55	0xbff54565f5657030	-1.3294429384032007
56	0xbfe02fa5615d3278	-0.5058161641732815
57	0xbff82f17ab2f09f7	-1.5114971815934248
58	0x4000ac28d78def48	2.084062274950984
59	0x3ff9ffd637dfa953	1.6249601538243794
60	0xbff6914c11e1da8d	-1.410472936489586
61	0xbfe3b795dead7f56	-0.6161603306936552
62	0x3febc7ef2664eb01	0.8681560277831012
63	0x3fb2ec3eed682d5b	0.0739173249823372
64	0x3fdce6be8dfc2c84	0.4515835177014156
65	0x3fecd560ca983e85	0.9010471302917301
66	0x4009526ca39f3a6f	3.165246275231133
67	0x3fed887f57d8e310	0.9229122844472801
68	0x3feb54ee1f7384dd	0.8541174520761633
69	0xbfeb0777d56c6a4d	-0.8446616333415676
70	0x3fec8e37493bd0f5	0.8923603468270175
71	0xbfc5413e87bf1cde	-0.16605359676598302
72	0xbff5d46461884148	-1.3643535432675709
73	0xbfee4c3a341fbc82	-0.9468050973936359
74	0xbfd48d09f38e4662	-0.32110832962744074
75	0x3ff2cb51a05c5f0e	1.174638391885256
76	0x3ff3f099be8356b6	1.2462403718867967
77	0xbfe434a29bde48aa	-0.6314251941969549
78	0x3fe9d478c3d95f76	0.8071864915063844
79	0xbff099c54ebf2969	-1.037541682819745
80	0xbfe816975c9a1b47	-0.7527577217705151
81	0x3fd59561d4d7bbc5	0.3372425631086425
82	0xbfc788bed3fbeac9	-0.18386063910278086
83	0x3fd615385135db02	0.3450451653547334
84	0x3ff773d11e94e36a	1.4657756037324483
85	0xbfe67ce95f59f9ec	-0.7027479994138139
86	0x3fd505b44f81b2de	0.3284731651718128
87	0xbfc0ea129f8281ca	-0.13214333332599743
88	0xbfeca45d46491f3a	-0.8950640080229058
89	0x3fdbe0439a1698ca	0.4355629925506831
90	0xbfd4961d744811f6	-0.3216622958719023
91	0xbfd1f8b81b29ba83	-0.2808056130660718
92	0x3fdcf650fbcb086d	0.4525339564244238
93	0xbfd2ed3f7ff7df5e	-0.2957304715814554
94	0xbff5c5d7b56ddec6	-1.3608014189793933
95	0x3fd2e56a0d895791	0.2952523357574757
96	0xc00884ee5014c5ba	-3.0649076706256126
97	0x3fba023b6babed89	0.10159655932141311
98	0xbfecc3b546b229bc	-0.8988901501446018
99	0xbfcaf91e8a8e0938	-0.21072751775143117
100	0xc001793fdc0c8f85	-2.1842038337071608
101	0xbfc241377af7a027	-0.14261525635015568
102	0x3fe2556690824cb2	0.5729248831215925
103	0x3fd754de409678d6	0.3645549422016193
104	0xbfe284643dec88e6	-0.5786610803081913
105	0xbfe1207f00164102	-0.5352168084810105
106	0x3fda334c1d2f5550	0.40938093996131375
107	0xbfe3ae32ed902ad5	-0.6150145187287658
108	0xbff9c077b487b259	-1.6094891597705525
109	0xbfcfd4d84fb97027	-0.2486830128935946
110	0xbfed6f37135be409	-0.9198260667900523
111	0xbfeb1e42af2d8963	-0.8474439069216654
112	0x3fe530a9861228e7	0.6621902102063161
113	0x3fd5104d3327a53e	0.32911996837227153
114	0x3ff28aa67d7e09db	1.1588501836819123
115	0xbfa3ee0644244bbd	-0.03892535764511915
116	0xbff6109d298cbeba	-1.3790561316526877
117	0xbfd38a4448271ab2	-0.3053141312233648
118	0xbf669f3f5eddad76	-0.00276148202003917
119	0x3fd6811c69788949	0.3516303091038436
120	0x3fdf3a521810a101	0.4879346117982238
121	0xbfece1bcb184edb2	-0.9025557963536157
122	0xbff24b2d665e0802	-1.143353843567184
123	0x3fecfb7f3b44f426	0.9057003171543598
124	0xbfeb6bece60b8d13	-0.8569244854992654
125	0x3feac332722b2ebf	0.836327765451152
126	0xbfd44b4118c50721	-0.3170931569949165
127	0x40081736e9587159	3.011335204135474
128	0x3fedc91f30902fb8	0.9308010052204656
129	0xbffa25cd4b1ce622	-1.6342289861771708
130	0x3fe1decd7240717e	0.5584475738028656
131	0x3fdeb6135f45d997	0.4798630171202602
132	0x3ff602099db30120	1.3754974517942813
133	0x3fe0ffa729d3b2b6	0.5312076394016774
134	0xbfbde7e608cb03ce	-0.11681974138902193
135	0xbff14785516cb98e	-1.0799611263897506
136	0xbfe4c1e2b0ccf0b6	-0.6486676648269369
137	0xbfd3c83a5aa9c88d	-0.309095943964288
138	0x3fd42ce2e89ebc2f	0.31523964611818917
139	0xbfdd471cdcf712f0	-0.45746537760378114
140	0x3fef5e22504893e6	0.9802409713780633
141	0x3fc1113808bdd32e	0.13333797861891966
142	0x3ff449fd77fcb53e	1.2680639922139814
143	0x3fe56a8bf1e766d2	0.6692561840711397
144	0x3ff7e7acccec926a	1.4940612797592174
145	0xbfe177284fe430fa	-0.5457955894831052
146	0x3fd3022af1e0b50c	0.29700730915904283
147	0x3fe2dca291dc30d6	0.5894329880552742
148	0x3fdeafae61a9fbfc	0.47947272813320274
149	0xbfe0456145c15dfd	-0.5084692346962921
150	0x3fe34852c172089a	0.6025785234671901
151	0x3fda3cda3ca2a924	0.4099641410963548
152	0x3fe0521570107842	0.5100199879414122
153	0xbfbc7eb4e481843c	-0.11130838946111593
154	0xbffd9355f8819245	-1.8484706599494
155	0xbff9055e69ce965e	-1.5638107426724654
156	0x3ffecb4b13640ffe	1.9246321446853467
157	0xbfd38b9e1ddba7c6	-0.3053965846617043
158	0xbff85697feed79f1	-1.5211410482512486
159	0x3fed6306783b8c91	0.9183380459111438
160	0x3ff828f70507925e	1.5100012012927873
161	0x3fbfb4470dc8e639	0.12384456717054428
162	0x3fd02c767e74251f	0.25271379803651145
163	0xbfd63bde18e0f08b	-0.3474040263133779
164	0x3ffb4e969bcd5f65	1.7066866003060224
165	0x3ff92712497b3053	1.5720389242515196
166	0x3fe117ea659ecce4	0.5341693863651042
167	0x3fc9e56d93a4ef4e	0.2023140879554099
168	0x3fd2bd7747013321	0.29281408247043045
169	0xbff1dcff03775f2b	-1.116454137363642
170	0x3ff7c266368134a4	1.484960759076139
171	0xbfc52182de630684	-0.16508518084269863
172	0xbfdbb87b9a6558ec	-0.4331349380276055
173	0x3fda90d83d5045eb	0.4150906180157949
174	0xbf8d44c6c8319a74	-0.014291336998394778
175	0xbff9b002fe4bac5c	-1.6054716046735598
176	0xbfe9d7eb43395f1a	-0.8076072991343353
177	0xbfcb00cee6348ac6	-0.21096216431131704
178	0xbff4d9a4187d50b3	-1.3031350094434344
179	0xbfe57b45948a59c8	-0.671297826879532
180	0xbffb164c0f74beba	-1.692943630576265
181	0xbfee133aa99d7195	-0.9398473084252595
182	0x3fc3bc25328d15f0	0.15417923897091113
183	0xbfe15221048b56b8	-0.5412755097156241
184	0x3fb3047bd0320532	0.07428716500182445
185	0xbfd50f8c345b65d4	-0.32907395470610123
186	0x3fd19765029de7e6	0.27486539130734255
187	0x3f8071e4f910dc36	0.008029736376654478
188	0x3fefa88bf93e0eb3	0.9893245571151595
189	0x3fb8fd8082090f05	0.09761813330356624
190	0xbfc2c261c17942a5	-0.14655706355053613
191	0x3ff19fa5801baaf5	1.1014761928769847
192	0xbfd71e96ce54e4e2	-0.36124200963565845
193	0xbfdf3b7c98a10797	-0.4880057802694124
194	0x3ff1449c8ae5c488	1.0792508531269807
195	0x3febe22ab4f58cb7	0.8713582548483804
196	0x3fd2b653794b2103	0.2923783001429145
197	0xbfecd70e649fdbff	-0.9012519803353597
198	0x3fd6a4e49a5b227a	0.35381426881625766
199	0x3ff279f01cf8d941	1.1547700053902903
200	0x3fea794bab1ae8c3	0.8273065893074761
201	0x3fd6a3de86abdc9b	0.3537517848157649
202	0x3ff301df6b9f45d4	1.1879572109213443
203	0x3ff576996719ba39	1.3414548899996943
204	0xbfea9a7bcc086750	-0.8313578591362134
205	0xbff4eb12937ae933	-1.3073907624189587
206	0xbfc199c9d5dac466	-0.1375057501041141
207	0x3fb17f862b73e1db	0.06835211335044937
208	0x3fea8f37aabe8cea	0.8299825987673135
209	0xbfddb44066840e54	-0.46412668238938193
210	0xbff2c7191cda80af	-1.1736079337206708
211	0xc002dcd6da31e628	-2.3578316732862454
212	0x3fd054f578e9841d	0.25518547828511534
213	0x3fee8b82b71359a1	0.9545301032729193
214	0xbfd64763577b466d	-0.34810718100661725
215	0xbff1329c8d625ba3	-1.074856331140588
216	0x3fe1f168e334450d	0.5607189595777143
217	0x40000f7b6fb04ed9	2.0075596547775203
218	0x3fece18a8417ff62	0.9025318698840972
219	0xc003c86694453c26	-2.4728519042614776
220	0xc0047f1211a8ecc4	-2.5620461826016214
221	0xbff07eaa3945d72e	-1.0309240567416498
222	0x3ff1c571f85d151f	1.1107043935492766
223	0x3ff131ba495ade0a	1.0746405473163372
224	0x3ff0b1276ae572d7	1.043250482143028
225	0xbfe05c94df6f5f67	-0.5113014568296251
226	0xbfd4f160709b8077	-0.3272324657136844
227	0xbfd8b2f3234bf5d9	-0.3859222263998539
228	0x3fd3669d3a670704	0.3031380720459398
229	0xbff1d5dffd3f677e	-1.1147155659186576
230	0xbff2d4a8e2c6838b	-1.1769188745895203
231	0xbfc6afa40decf5c4	-0.17723513297998583
232	0x3fe3b54f5be542c4	0.6158825678667985
233	0xbfce9a6e2fdf9035	-0.23908784234584038
234	0x3fe3774973551928	0.6083113911234124
235	0xbfe54328ec417987	-0.6644482244844746
236	0x3fd50ee372b72fe6	0.32903372004216036
237	0xbfd64d9da3a9201b	-0.34848729116902327
238	0xbfd05fbee171bef4	-0.2558438493351638
239	0xbfb7d98fb332cb53	-0.09316347241364768
240	0xbfef7ffa0c1d8989	-0.9843721615437043
241	0x3fbad229d88263d6	0.10476933990356882
242	0x3fdf99a62c629e8f	0.4937529977273493
243	0xbff8e2c4943d740d	-1.5553632536532433
244	0xbff677a78f8865e5	-1.404212532687205
245	0x3fc717a9cd41abd1	0.18040964624682812
246	0x3fe107bac8dc9e78	0.5321935580331703
247	0x3fc898b968bf88ad	0.1921607743707389
248	0xbff9e9b502c14477	-1.6195573909392615
249	0xbfe9cd1efcbd4396	-0.8062891899409006
250	0x3fa2ea05cafb44b2	0.03694170096208306
251	0xbfd7e7d069695177	-0.3735238103302189
252	0xc00304ed3b7fc28b	-2.3774056099285352
253	0x3ff22e701d1ecf2e	1.1363373887551904
254	0x3fd4c9790e21fffd	0.32479692821652845
255	0xbff0c98333a5b1c6	-1.0491973893614257
