previous_generated_weights/weights_20250228_164241.npy (npy, 62848 bytes, 1 tensors)

array f8 [784, 10]
000000 bb 38 e3 32 23 75 ef bf 1d 94 c3 d6 f5 e1 dd 3f
       -0.9830490106485493 0.46691652272267153
000010 02 37 5c 94 b5 40 04 c0 a5 2f 21 53 3a e5 00 c0
       -2.5315963354722735 -2.1119276518347356
000020 6c 17 87 67 6f 5a 00 40 10 f5 50 9c 2b 42 ee bf
       2.0441577995397235 -0.9455774357844877
000030 7a 9e a1 d0 37 84 e1 bf 41 77 82 73 17 8f ef bf
       -0.5473898958998256 -0.9862172370955947
000040 ae 69 ee 2f 24 3b e4 bf b5 f5 bb dd e7 7c e9 bf
       -0.6322194038541988 -0.7964972811457104
000050 ca 5d 58 6f 36 4d e2 3f 70 57 6c d0 3b 48 40 bf
       0.5719253706656044 -0.0004968921719832164
000060 73 c9 ef 75 45 c8 f1 bf 9e 34 1f 7b 4b c1 e6 3f
       -1.1113943678761558 0.7110955624317687
000070 09 a2 a3 b4 ce 11 f4 3f 92 b9 c6 86 6a e1 02 40
       1.2543475204676062 2.3600664643665334
000080 8f 84 d0 f2 21 73 e0 bf 94 32 bd 6c 25 86 ea 3f
       -0.5140542738410135 0.8288752673921231
000090 25 65 a2 2d 09 23 e6 3f 51 b4 c4 c0 3a ae fd 3f
       0.6917768374725354 1.855036499978514
0000a0 ca 34 97 52 7d de ee bf 58 c1 77 42 6f 59 ec 3f
       -0.9646593678568476 0.8859173105429745
0000b0 4d 83 c7 5b fe bb 02 c0 ea 1b a3 15 62 2e d4 bf
       -2.341793744112158 -0.31533100235941325
0000c0 7e bd dd 13 4d 31 f5 bf a1 ec 75 a7 78 eb c3 bf
       -1.3245363975546236 -0.15562351395405918
0000d0 20 40 75 31 a3 87 cf bf 57 04 5c 5b 30 64 f0 3f
       -0.24632682719175225 1.0244601792076276
0000e0 53 3d fc 82 49 ed fa 3f 59 0d b1 23 3e de e6 3f
       1.682931434308405 0.7146292397596127
0000f0 55 c7 df 60 23 39 ec 3f 0c 0b 75 95 d1 44 f1 3f
       0.8819748775551753 1.0793014372035854
000100 3f bf 34 e9 7a 07 e7 bf 9d 2d 18 a4 01 86 e7 bf
       -0.7196631007009059 -0.7351082043618821
000110 b5 74 fa b4 c3 bd fc bf 8e ef dd a7 d6 f5 f7 3f
       -1.7963292188135658 1.4975191647817812
000120 af b2 00 2a 4a 79 de bf be a8 b1 b5 f3 59 aa 3f
       -0.4761529359991909 0.05146752922958474
000130 cb ab fd 8e ce e7 e5 3f bd 77 f3 83 4b d6 ac 3f
       0.684546736983401 0.05632244096499004
000140 89 f6 c7 ae 5b 0a f8 bf 08 a2 38 97 af 7b ea 3f
       -1.50252884172315 0.8275983766116619
000150 ca 34 94 21 4e 1f fc 3f db 19 e2 1e 0c 3c e9 3f
       1.7576428710629437 0.7885799983203542
000160 74 d5 18 74 cd 36 e5 3f 17 08 84 d2 38 6a d0 bf
       0.6629397647399586 -0.2564832740609985
000170 3b 9a 33 2d 1f f0 f6 bf fc 3e f2 f0 c6 48 e1 bf
       -1.4336234822927867 -0.5401339250547319
000180 54 9a e5 1d 73 6d f2 bf 45 a3 c8 b1 ff 55 ee bf
       -1.1517211120459665 -0.9479979011858651
000190 59 13 6b b4 37 78 c1 3f 3a c4 ea 6b ec 45 de 3f
       0.13648124989972635 0.47301779307150904
0001a0 94 d2 77 98 47 71 e8 bf 85 b8 af be 1d 7c be 3f
       -0.763828084744619 0.1190813627760879
0001b0 2a 66 11 88 30 b7 c0 3f 7a 36 92 86 54 dd ee 3f
       0.13059050220435725 0.9645178440420772
0001c0 ad 46 37 a2 79 42 f3 3f ea 23 bf 77 73 eb 02 c0
       1.2037292801436863 -2.364966331024779
0001d0 f1 ef 4f 56 b4 1c f9 3f ab b9 6b b5 f9 79 e9 bf
       1.5695079204151592 -0.796139578187469
0001e0 b9 5d cc 1a d8 36 eb 3f 4a 5e 9a 7a d8 ac f2 bf
       0.8504448436169049 -1.1671986378841148
0001f0 9b e8 8b 12 87 e9 e3 3f 79 1d 58 15 97 07 f9 3f
       0.6222567903744393 1.5643530687101175
000200 82 2a ca 20 e4 7a da 3f 1e 6f 7f 3b 38 63 da bf
       0.41375067903633334 -0.41230588732081397
000210 15 81 01 06 ca 00 f3 bf c0 c6 ec e3 27 8a cc bf
       -1.1876926645855452 -0.2229661810793484
000220 d6 f8 69 e2 b6 6b e4 bf 0c 7b 0e 36 ff d0 dc 3f
       -0.6381487295291446 0.45025615958177023
000230 b6 67 6f ae 5a 9a e7 3f 87 b1 90 ab 0e c9 c9 bf
       0.7375920683800732 -0.20144828202445472
000240 0e b7 a6 8b 0f f3 f3 bf a0 be f7 bb f5 cc e6 3f
       -1.246840997231121 0.7125195189709821
000250 d7 a2 e0 8b 50 60 c5 bf e6 c2 2a bb dd 75 f0 bf
       -0.16700178937869367 -1.0287759124004707
000260 4a c3 fe 5c 92 86 bc 3f 77 9e 81 d8 7b ba fb bf
       0.11142840166463688 -1.7330282647398272
000270 cd a8 e8 08 76 d8 e0 3f 0c c8 af d1 d3 eb e1 bf
       0.5264234708786489 -0.5600375266496953
000280 ae 84 00 80 7b c1 f0 3f a2 6a 6f 8c ec f2 b0 3f
       1.0472369194106181 0.06620672634691485
000290 be b6 2b 0a 26 26 f3 bf 35 c6 ab fb 89 f1 fd bf
       -1.1968136212630465 -1.8714694815538568
0002a0 42 51 40 d8 3b ec f7 3f f6 12 42 40 df 4c ef bf
       1.495174259883314 -0.978133798126321
0002b0 67 9d 9d 62 74 3f b8 bf b7 6b 60 8a 93 86 da bf
       -0.0947182408104844 -0.4144638873419199
0002c0 a2 48 d0 cb ae de fb bf ab 21 0b 84 0e 17 f9 bf
       -1.7418659173459123 -1.568129077715734
0002d0 10 03 34 11 27 d5 e2 bf f9 02 db f4 97 6f eb bf
       -0.5885196052550743 -0.8573722631773243
0002e0 ce fb fd 80 37 13 e3 3f da 4f 12 77 f2 1a ef 3f
       0.5960958022477543 0.9720394445052947
0002f0 ce 8e 6e 6b f9 d2 d3 bf e6 31 54 07 b7 5d 00 c0
       -0.3097518490924188 -2.0457592556542634
000300 db 77 b2 c6 30 63 d4 bf 27 70 74 d7 fe 5c e1 bf
       -0.3185541096116801 -0.5426019867040893
000310 e3 8b 72 65 03 f7 d8 3f cc d3 38 88 d4 e3 de 3f
       0.39007649332978483 0.4826556520741263
000320 d6 58 c6 7c 03 00 de bf 74 06 47 1a ec 50 f1 bf
       -0.4687508314613188 -1.0822564150297724
000330 96 1a 60 9f 8a 2b cb 3f 6a 6f c1 b2 d1 62 b9 bf
       0.21226628095628958 -0.09916411031866593
000340 9b a1 84 91 80 5e 03 40 69 d9 16 75 77 6e d6 3f
       2.4211436623192646 0.35049234804627943
000350 82 49 fb c3 55 c5 e6 3f c1 dd bc 23 51 41 c7 3f
       0.711588747765106 0.18168081517226933
000360 a0 c4 24 e6 4d 3a e4 3f 75 63 97 e7 7c 36 ce bf
       0.6321172232620889 -0.23603783901378575
000370 11 8c ac 3e 63 c1 de bf f4 76 a3 ed b1 b4 ea 3f
       -0.4805534469653035 0.8345574990632643
000380 77 60 08 ca 8a d3 cf 3f b0 a6 5a 17 f4 38 f0 bf
       0.24864325394515038 -1.0139046585340274
000390 e0 9b 7d 78 49 c4 c4 bf a7 7f b4 7a 66 49 f1 3f
       -0.16224020369847292 1.0804199975172908
0003a0 54 44 0e 46 33 85 e4 bf 97 8a 71 83 8b 52 f3 3f
       -0.6412598007465342 1.207652581645254
0003b0 b0 8e b7 0a a1 0e 06 40 f9 10 ed ec 98 f6 d4 bf
       2.7571431004779114 -0.3275511087160932
0003c0 a4 3c 3a 05 62 86 d0 3f 1d 94 4b ed f0 dc e9 bf
       0.25820208082672935 -0.8082203516647756
0003d0 38 42 66 43 dd 9f ea 3f a0 44 7e 93 63 20 ea bf
       0.8320146862407176 -0.8164537316062201
0003e0 ed dc 37 f4 69 55 e8 bf e9 c6 5b eb 70 40 f3 3f
       -0.7604264993559845 1.2032326883021887
0003f0 72 0d 44 20 00 7a c7 bf fa 7f 9c c4 37 d5 e3 3f
       -0.183410659556198 0.6197775688233371
000400 6d 3a cb 93 44 44 fb 3f 8d ff b7 74 97 22 da 3f
       1.7041669629285494 0.4083613052207447
000410 79 db 57 d7 5a 2e ca bf e9 1a e2 55 f9 ea 03 40
       -0.20453963770679787 2.489733382189446
000420 72 a0 d6 d8 b3 b9 e0 bf be 0e 81 60 80 c7 ff bf
       -0.5226687655567857 -1.9862064141934037
000430 9e e6 57 97 61 10 f5 3f 12 dc b1 99 59 c4 fd bf
       1.3164993202066522 -1.8604370120717744
000440 3a ea d1 f0 64 cf ed bf bf 09 25 c3 02 44 ec bf
       -0.9315666869654884 -0.8833020984096079
000450 19 d9 49 01 8e 1b 04 c0 29 d0 03 55 30 73 a6 3f
       -2.5134544468557007 0.04384757077960472
000460 b1 fd 7b 97 32 f2 dd 3f 8d 3f f8 22 80 54 dc bf
       0.4679075698222404 -0.4426575032712144
000470 4f 87 cd c5 18 65 e9 3f 4b dd e7 03 5e 49 e2 bf
       0.7935909140908083 -0.5714559627803423
000480 22 d3 91 d5 ef 57 e7 3f 35 db da e7 cf 98 ea 3f
       0.7294844790727419 0.8311538246551665
000490 f3 1b 39 a6 a7 b1 e9 bf 44 dd 9b 5c d6 58 e0 bf
       -0.8029363867325386 -0.5108444031492714
0004a0 58 9f 39 6f 5e 06 c5 3f 0f 22 03 63 42 f5 03 c0
       0.16425686293518527 -2.4947555289584282
0004b0 a1 f6 15 f3 56 a7 ef 3f b4 d5 e5 29 64 3c ec bf
       0.9891772029656815 -0.8823719805065395
0004c0 80 a1 81 c4 8e d8 e0 bf d4 f6 b6 61 32 b2 00 c0
       -0.5264352643981027 -2.087010157962917
0004d0 87 d4 32 3c 36 96 cf bf 88 63 d5 61 0e c9 f5 3f
       -0.24677160205252255 1.3615859815238043
0004e0 c1 14 8d 62 61 69 d7 3f 67 bb d2 47 1b 25 de 3f
       0.3658069097912851 0.47101480497342724
0004f0 17 25 b1 fd 7f 98 ed bf ca 58 ba 9a ab 57 b4 3f
       -0.9248657183572132 0.07946274306809467
000500 5e 0f 4d e9 14 7f 03 40 c8 93 b8 55 1a 3d db 3f
       2.4370516039506773 0.4256044232482137
000510 3a e8 7b 4f 94 30 d8 3f c3 9f 5e b7 be df b4 3f
       0.37796504747496196 0.0815390775375127
000520 ed 87 d8 84 04 04 ab bf 30 49 73 5c a4 63 c4 bf
       -0.05276502725270391 -0.15929083360840357
000530 37 73 cb bd 33 15 c7 3f 04 bd 04 47 63 4b ec bf
       0.1803345371944489 -0.8842026125984437
000540 b2 ed 97 46 6b ce e9 bf ca 48 dd 7c b9 0a f3 3f
       -0.8064476374415135 1.190118301154643
000550 27 e5 42 d2 8b 72 7a bf 80 21 f2 0d 03 42 ee 3f
       -0.006456895997126544 0.9455580971125954
000560 89 b5 d8 2c f2 68 fd 3f f3 57 10 a2 c8 c0 f8 3f
       1.8381215812508762 1.5470663385981396
000570 05 ac 3b ab b4 69 bd bf f8 d3 e5 e4 32 95 f3 bf
       -0.11489419155593346 -1.223925489551446
000580 43 5b fa 92 79 18 f7 bf c3 0a d3 9b 6d 5c f1 3f
       -1.4434753171278352 1.0850654684915504
000590 18 1f 6b 41 28 cd ea bf ac 2f 37 88 b0 56 ff bf
       -0.837543609400174 -1.9586644478722333
0005a0 f7 b5 d1 e5 62 4e e6 3f 05 00 25 19 aa 13 fa bf
       0.69706864248809 -1.6298008901794685
0005b0 c8 09 e4 b5 3d f9 f9 3f b7 63 8a 30 fe a2 f3 3f
       1.6233498673542375 1.227293195354134
0005c0 5e 66 ae 6b c3 f7 b7 3f 49 49 af 52 78 10 de bf
       0.09362431887566333 -0.46975524973563104
0005d0 31 cf ce 86 fa 2a fc 3f 6f f8 49 b5 ca c4 d4 3f
       1.7604928270274736 0.3245112200164674
0005e0 62 3f b3 f5 65 79 f4 3f f6 a5 00 46 32 c8 b7 3f
       1.2796382520354759 0.09289850434347344
0005f0 49 0b b2 05 77 d8 f9 3f 78 f0 e3 c8 9e de e7 3f
       1.6153478834609862 0.7459253238335029
000600 1d 59 0b dc ba 45 00 40 18 06 6f 5b 16 dd 91 3f
       2.0340478125537076 0.017444943743390423
000610 ae 6a 7c 62 a7 e9 ee 3f dc 74 af 9b 4f 82 d6 bf
       0.9660221980623953 -0.35170355037355505
000620 8a 61 e7 cb c6 d1 f1 3f 23 50 06 39 3a f4 f7 3f
       1.113714977740616 1.4971258380437653
000630 c9 43 78 15 bb 45 c7 3f 80 3b e6 78 70 5d e2 bf
       0.1818155150254184 -0.573906170016798
000640 3b b1 73 df e3 c3 c6 bf 3a 06 9f 29 15 f0 f8 3f
       -0.17785309229601318 1.5586139322116552
000650 a5 40 45 4e 1b a9 bc bf cc 68 2f 13 84 f9 e9 bf
       -0.11195536290074644 -0.8117084860525892
000660 a3 b2 20 5d bf b7 f2 bf 7b 10 49 ec 3a 3b f2 3f
       -1.169860233097247 1.1394604902170886
000670 3b fe 5c f2 3c 13 e6 bf 79 05 fe 87 f6 5f e6 3f
       -0.6898483976037321 0.6992142349337619
000680 22 99 9d c1 0e b9 c0 bf a0 93 0a cd 6c 90 fb bf
       -0.13064751104247657 -1.7227600106645937
000690 64 76 19 23 a5 20 ea 3f fb 43 7d 46 dd af f2 bf
       0.8164849935089475 -1.1679356339921003
0006a0 e4 14 13 10 d3 3c c5 bf 69 5d fa c5 9f c5 f0 bf
       -0.16591871533288505 -1.048248074866786
0006b0 48 43 09 2c ea 2c f1 bf 7b 04 7f 00 18 da 00 c0
       -1.073465511337604 -2.1064910925638833
0006c0 c2 22 a1 f1 ef 60 02 c0 51 7c 73 ae 71 97 e0 bf
       -2.2973326566028343 -0.5184868247269013
0006d0 21 68 14 d3 1d 7f f5 3f fa 2d 12 e9 19 35 cc bf
       1.343534302263386 -0.2203705204050122
0006e0 29 e9 5c db 16 eb e7 3f 92 a0 79 c0 ac 94 ed 3f
       0.7474474224502831 0.9243987807540341
0006f0 29 c7 ec 83 88 eb b7 bf 6d 96 f8 8e c7 36 f5 bf
       -0.09343770237753958 -1.325873907547613
000700 8c 67 3e 0b d0 6d d9 3f 53 d8 96 24 b8 cf f1 bf
       0.3973274335672776 -1.1132127217547534
000710 8d b8 e7 7d 7f de f5 3f d8 b8 d5 a5 04 bb dd 3f
       1.3668208044214538 0.4645396823388075
000720 62 da b4 7e dd dd ee 3f 0b 48 16 98 6e 09 e0 bf
       0.9645831560836309 -0.5011513681840837
000730 60 d4 7f 03 67 e1 06 c0 12 8c 0b 0f e1 29 ed 3f
       -2.860059764231252 0.9113621991967895
000740 98 8e 2e 91 4a b2 f8 3f 2a da 0c 1a 75 15 ef bf
       1.543528143994001 -0.9713693150322957
000750 37 64 ab b5 37 df 9b 3f 7b 24 18 73 d1 38 f7 bf
       0.02721869512865657 -1.4513716216918329
000760 db 5a d6 2e f5 b6 f0 bf 76 a9 d3 c7 0d 64 e8 bf
       -1.0446674184401477 -0.7622136023394848
000770 3a b1 1c c3 37 e1 72 bf 81 eb 46 27 81 3a df bf
       -0.004609315701412259 -0.48794583163878974
000780 2d 2e ed fd 87 11 ea 3f 18 b0 70 91 6f d1 c9 bf
       0.8146400413037945 -0.20170397378512983
000790 7e 57 e5 2e c3 3f e4 bf e3 71 70 fd 83 df f1 bf
       -0.6327835002837074 -1.117069234845183
0007a0 7c 74 a7 6f ae 57 e9 bf 83 58 e8 8c b8 f3 f5 bf
       -0.7919532948250345 -1.3720021728709362
0007b0 1b 5b 47 93 41 a2 ee 3f 29 09 1c c3 82 05 df bf
       0.9573066593683025 -0.48471135190642883
0007c0 6c 0a f7 86 ed b1 da 3f 57 58 09 24 43 2b e4 3f
       0.41710985355545094 0.6302810386503194
0007d0 27 62 4f f7 33 c2 b9 bf b3 ad e8 57 a4 66 91 3f
       -0.10061955249637632 0.01699311052850101
0007e0 57 28 39 00 7c 4b ef bf c6 62 46 48 d6 28 cd 3f
       -0.9779644016609933 0.22780874756860764
0007f0 34 28 c8 e6 7a 89 e5 bf 3d 90 c4 24 37 43 f4 3f
       -0.6730322368105193 1.2664100109332275
