previous_generated_weights/weights_20250228_172026.npy (npy, 62848 bytes, 1 tensors)

array f8 [784, 10]
00000000: 0431 4d3a 0749 ec3f 48ae bf7f 6b9e fc3f
00000010: 52e1 9cbc 7c98 cabf ee15 26ad 9855 ee3f
00000020: 327f ca2d 6d75 f43f ad26 895c 30d8 fa3f
00000030: 65d2 6b88 b8a9 e33f a4d9 28fe 70dd f0bf
00000040: 3547 e975 5373 f13f a0f8 34bb 0641 bd3f
00000050: 4ddc 357a 8110 e5bf 50ca 6c4e d325 d2bf
00000060: 7306 9531 5da3 dcbf 5104 ea7a 514b fd3f
00000070: 45fb cb7a 3085 ff3f 300c 244d 83e3 f73f
00000080: 796e e874 aff4 d33f 07da 3548 2b03 c03f
00000090: 8460 ea7c 3df5 d53f 35ed 7190 0385 de3f
000000a0: 590c 253c 5c8b f33f 2c7c 3409 811b e93f
000000b0: 6913 fe65 d2c8 f8bf 2801 7a42 6be3 f4bf
000000c0: 25c4 c7b2 ab80 debf 6422 8b52 3675 f03f
000000d0: 990b 5bd4 ecd0 dfbf 0f01 9566 6cbe fb3f
000000e0: b447 bf98 0527 e9bf a0cb c2f2 df24 eebf
000000f0: 1e00 f4fe 9356 f43f f1f2 d147 e441 cdbf
00000100: 0785 6ef4 891e fbbf db58 a96f bdd4 d03f
00000110: 1c53 62dc 9948 e53f 601e 0519 f55c f63f
00000120: 6bed f93f 8cdc d83f c5d7 d209 6034 d0bf
00000130: 256d f7f1 6ac5 e9bf ff61 61d7 f743 eb3f
00000140: dd96 28f4 cd76 0140 2ccc e7a4 be59 e0bf
00000150: 5d39 fbe7 4fa5 c93f c1e4 0fdd f5d1 f1bf
00000160: 986e 3840 5876 d4bf a92c a0c0 fbd8 cc3f
00000170: 19a9 679b 3966 f1bf f50f 65f4 34eb cdbf
00000180: e578 f733 33b3 df3f 720f 5a9a 49d1 e53f
00000190: a654 cffd 20d6 cbbf 2ca0 1993 bf04 c3bf
000001a0: 9530 3b25 2fe4 f53f ae1a ff08 e962 fb3f
000001b0: 8ffe e038 edab fa3f a4d3 13ee e5ed e33f
000001c0: e12b 100a 7a64 d2bf aa38 ed95 0bfe e8bf
000001d0: b75a d187 20e3 d0bf 49cc 372b 2706 ebbf
000001e0: 9650 a795 090c e33f 9963 0e66 a5a2 c63f
000001f0: 7b63 d537 0793 0240 8ac7 b781 a808 fb3f
00000200: e0b3 241f 5f28 f03f 251e 1d9c d05c ea3f
00000210: cedf 6fad 7ab6 e7bf 5494 976c e7da c33f
00000220: 2ff4 1547 3c38 f43f a542 d33d 7d59 f1bf
00000230: 9e37 bf03 5166 c3bf 0665 e9b5 5cf8 f6bf
00000240: 0928 702f 19c5 f93f d869 802a 1845 bdbf
00000250: 1a17 ddff 6a82 e53f ce04 47c6 2810 08c0
00000260: 31dc b560 ffc6 c0bf ada2 833c 03ec ebbf
00000270: af58 2076 317f e03f 5b5d aa72 b979 fc3f
00000280: e8fc ea04 b7f4 d9bf 760d 9297 2077 e93f
00000290: 4be0 a41f 8423 d13f 4437 ba4e 5c4e e83f
000002a0: b4b2 4389 af05 bcbf 4616 2105 b973 e2bf
000002b0: cb0b 6d73 dc37 e33f 6057 49f2 6eec e73f
000002c0: ba83 ebff 537a f23f 24ed e77a a4e4 ef3f
000002d0: 550b d80c c85b dd3f 13c1 b23a e0d7 b5bf
000002e0: dfb3 2171 6350 94bf c3c3 d0ff 5f81 f6bf
000002f0: 5052 b82a db70 d83f 7ddc c26f 0e67 f4bf
00000300: 6d7d 585a 608f f23f 810e 7ab6 64e1 d93f
00000310: dc24 4630 87b2 f9bf bee9 1582 65b7 c53f
00000320: b875 309b 681e e33f 8336 68f2 959e 813f
00000330: 3131 f847 7f60 f13f 348d 23ca d7cb f7bf
00000340: 9cb0 7ab5 986f eabf 40ac 806f 2ada f3bf
00000350: 735e 47fc ec05 d2bf 3fd6 e748 973d cdbf
00000360: ecb7 f770 ec29 f6bf f564 a8bd 247b e1bf
00000370: d660 efdc 5a31 cd3f a629 557e 3229 d63f
00000380: 98c8 2bad 7ee8 e03f ba72 7adc aa9e cbbf
00000390: d171 6937 d7ab bb3f e0b9 3ab0 715d e03f
000003a0: c672 5991 5ba7 fc3f adf4 4c2e fc05 06c0
000003b0: 12c0 79d7 16f0 ecbf 151c b2c1 ec6e f43f
000003c0: f3db 20d2 17ca d2bf dfbe 47d5 e856 f9bf
000003d0: aa5a e97a 2b8d f53f 4914 dda3 4e55 f83f
000003e0: 3f08 c673 c135 f33f 7d9e 7563 47e4 ef3f
000003f0: fc9e 907b 3f24 ecbf f999 e4a5 e71a e6bf
00000400: 036a d43f 14d3 e0bf f7e4 69ef 4630 d9bf
00000410: f233 faa3 1ee0 fabf 8efa ea0d a5d9 b63f
00000420: 53a3 0345 d3f5 d5bf cde4 4aa6 6a42 fabf
00000430: c3af 77f1 6608 f43f 15f5 606d 6b25 f83f
00000440: 5123 44b8 2b41 eebf 7dad 37e5 2c0c e3bf
00000450: f83e f495 d04e eb3f e3f5 8ce1 8a5a f03f
00000460: 892f 660c d5df db3f c100 2fcb 6bb3 e43f
00000470: 9b4f e6df 2ff3 e63f c229 2ab2 200c f93f
00000480: 9e5a 7209 5b3b eebf e723 818b 8e49 debf
00000490: b98f 83a9 5bd8 f1bf 8f87 7e7f 0317 f7bf
000004a0: b65b de05 b7da f33f 8c2f ec33 143f d2bf
000004b0: 1c82 98ee ddff c53f 7c2d 50ba e006 ee3f
000004c0: 1d87 ed28 dffb d93f 094a 2e75 782d eebf
000004d0: b41b ed91 3001 f4bf 6341 3ff8 dd72 c7bf
000004e0: 8f58 2b27 6032 b8bf 2c36 9e1e 3368 f73f
000004f0: 6391 ce1c fb3b d9bf 3d51 869c 88b9 ccbf
00000500: 504b 4616 f9c2 e83f 1e57 dd26 f75b e0bf
00000510: 0405 a9f0 5d20 fc3f 880c 1366 e9fb f7bf
00000520: 27c4 8c97 a3c4 0740 569b ce42 a3c2 0140
00000530: 6aa2 830f 4b88 cf3f 9c47 11b0 954c de3f
00000540: fbc6 976e 94e1 d2bf 824a cc4d 9c39 fc3f
00000550: e722 c2a4 d5d1 febf 2f0b af77 9804 e23f
00000560: 944c d74d c124 ecbf 4d7e 4db4 086b cabf
00000570: 4b2a 029d ade0 a73f 836e d245 04f8 e33f
00000580: d792 ba53 0362 c2bf 4d09 06d4 f2a5 e23f
00000590: deb1 acc0 e612 debf f7e2 eb2b 260a dc3f
000005a0: 9673 0501 2370 e7bf c634 d82f d8f1 b4bf
000005b0: f58d ce2d f9ba f53f e215 abfc 1f88 f03f
000005c0: b520 ecbf 5886 d1bf d810 a097 fc62 a3bf
000005d0: c886 11d7 d883 e1bf bd42 cd98 0890 d53f
000005e0: 0acb 87b7 2cf1 e9bf 140f ebb5 c0e4 e43f
000005f0: 880c 3da9 9448 dcbf 9ce3 5003 ca4a dfbf
00000600: b388 866d 7460 0b40 0dd7 73e0 acf8 e8bf
00000610: c85c 112a 96f0 e6bf 1e90 c06e 373e fbbf
00000620: 3703 8fcf 15e5 bebf 8076 c1b7 329b ecbf
00000630: be8b 8de9 64aa b6bf c3f6 77d4 e73c e0bf
00000640: 6cc0 d530 4ebc d8bf 5e1f 90b1 6004 f23f
00000650: 00f3 404b cff8 d1bf 9498 5c2c 14f8 e1bf
00000660: ff3e 4489 2409 fabf ac15 c5d3 a94e d3bf
00000670: 6de7 90f2 77bb 9c3f e3b3 7278 3811 e4bf
00000680: e540 9060 8e14 ecbf 9998 c00d 73c7 f7bf
00000690: f466 d520 ed3d f73f 78fe a092 3746 b73f
000006a0: 7d33 b26a 0478 f3bf 4631 49f9 69df e03f
000006b0: e8a0 91d0 dc84 f03f 8236 8c74 6e5b e3bf
000006c0: e764 61bb 7c3a 95bf c2bb 13c4 230a eabf
000006d0: 5f3e e1b5 9850 e1bf 89f7 140e a4a8 b2bf
000006e0: 074a 8044 ed61 f93f 2b5c 8401 73c2 aabf
000006f0: 2bf8 69e5 b99b a9bf a671 7421 63d3 f5bf
00000700: fa4f a1a5 88cf cc3f e1d1 de46 7233 e13f
00000710: 813b a48e 7eae d23f 784e 844b 7c45 e73f
00000720: a2b0 ce6c fd0c f9bf c1c9 5341 f001 01c0
00000730: c54a 866a 92b1 e4bf afd8 4819 2038 e73f
00000740: 1d91 e179 16d6 fb3f d84f bccf e99c ea3f
00000750: e88b 9e30 a302 b73f f35c 258f 3587 d73f
00000760: f5a6 f80d 6f52 dbbf 0f4b ec68 91aa e63f
00000770: e9c9 1e59 ef8d f0bf 4dae 583a eca1 eb3f
00000780: aa53 fe04 86f2 e13f 06e2 3fd2 dee6 f13f
00000790: 6c27 53ba a40a eb3f b713 9799 b42e c1bf
000007a0: 2b7a 061b 15d0 c9bf 545c b3d9 0811 94bf
000007b0: 4b69 57c1 bfa1 d63f f1fb 9eed 8ab9 f33f
000007c0: db14 205f 8cf2 fdbf f23d d2f2 d18f 06c0
000007d0: 7dcd 9e2b 3f09 fd3f 5e42 6e27 126b e43f
000007e0: 13ea 042e ba59 f13f 0ea0 6bfa 4366 f03f
000007f0: 07b2 bd62 7007 d33f 5a27 37a4 12d2 d3bf
0.8839145792676679 1.788676737803046 -0.20777854165658965 0.9479487783252674 1.2786685742102688 1.6777804960897058 0.6144678749538569 -1.0540628364666214
1.0906557660968705 0.11427347250443853 -0.6582648646280035 -0.283558680140378 -0.4474709495735631 1.8308882523854388 1.9700169369459257 1.493045140582364
0.3118094102553424 0.12509671235939399 0.34309327315123306 0.47686852556190057 1.22152350896865 0.7846074275765935 -1.5490287765580553 -1.3055222126714146
-0.4766034360791898 1.0286162590365615 -0.49712677705627467 1.7339900977240779 -0.7860134108870995 -0.9420013181137286 1.2711372336489215 -0.22857335573998896
-1.6949557827104529 0.2629846182293371 0.6651124290825439 1.3976946809142632 0.38846117255862705 -0.25319672545753874 -0.8053488469990141 0.8520468908928364
2.1830100130926966 -0.5109551640329122 0.2003574259492308 -1.1137598643529574 -0.31972318908240416 0.22537180810500004 -1.0874572821144908 -0.23374044354761705
0.49531250071403427 0.681797791927677 -0.21747219460545358 -0.14858240778562626 1.3682090238899367 1.7116480208803 1.666974279578344 0.6227903032255324
-0.28738261206370735 -0.7810113838438799 -0.26386273635345553 -0.8445010990238951 0.5952194140359264 0.17683856471265072 2.321791111182788 1.6896138255219477
1.0098563400781515 0.8238299416634091 -0.7410252940599038 0.1551179199442766 1.263729360274066 -1.0843479552315014 -0.15155995066600964 -1.4356352907109922
1.6106197217036444 -0.1143355468524655 0.6721701619469258 -3.007890271227189 -0.13107292387187067 -0.8725601369779575 0.5155265147357307 1.7797178725357614
-0.40556121330514694 0.7957919082986524 0.26779273119200714 0.7595655000347752 -0.1094617567175174 -0.576626310365733 0.6005689863599114 0.7476114971311567
1.1548652645944757 0.9966604614741397 0.45872689489640567 -0.08532525475562051 -0.019837907581336963 -1.4065856926720108 0.3818881909549292 -1.2751602521582577
1.1600039986732 0.40438192195890826 -1.6060859571173784 0.1696593175109466 0.597461989502043 0.008603259525467926 1.086058884745466 -1.4872663398790111
-0.8261226219670053 -1.2407631259509486 -0.28161167751884547 -0.22844210681766872 -1.3852352536009631 -0.5462821678403588 0.2280686930450943 0.34626447999166954
0.5283807165381118 -0.21577964559118873 0.10809083082990091 0.5114067499142116 1.7908588102065308 -2.7529224030718837 -0.9043077667720374 1.2770812574615367
-0.293584780887101 -1.5837181407222756 1.3469652940017718 1.5208269501611247 1.2006239435581987 0.9966160719458937 -0.8794248021485767 -0.690784286508289
-0.5257664915728245 -0.393571599771874 -1.6797167210927424 0.08925849523346072 -0.343128983875933 -1.6412149902155762 1.2520512993169042 1.5091356537444132
-0.9454554175327791 -0.5952362515358086 0.8533709458151568 1.0221051035472264 0.4355366345487189 0.6469019859723845 0.7171859143295366 1.5654608687933522
-0.9447455582147375 -0.47323955176812976 -1.115321790851324 -1.443118570351064 1.2408972005120922 -0.285100031572022 0.17187093877966297 0.9383395804338046
0.4059980296789137 -0.9430506027877651 -1.2502904606096594 -0.1831929647583009 -0.09451867061884144 1.4629393764511276 -0.3942859441106263 -0.22441203730398654
0.7738004145670434 -0.5112262496065545 1.7579020882406562 -1.4990018832475318 2.9710151519616548 2.2200379580785166 0.24634683854607725 0.47342436021892254
-0.2950182991036027 1.7640650786385383 -1.926229137027059 0.5630609834264301 -0.8794867058117171 -0.20639141849368273 0.04663603345496322 0.6240254749022401
-0.1436161192733809 0.5827573910794769 -0.4699036485278877 0.43811945237352695 -0.7324385662028472 -0.08181525390701258 1.3581477917986124 1.0332336301665852
-0.2738248705141005 -0.03786458350080729 -0.547344608359901 0.3369161121563982 -0.8106902679995482 0.6529239228334256 -0.44192997481531693 -0.48893976520371907
3.4220970684701455 -0.7803558715665716 -0.716868478931155 -1.702689583421495 -0.12068306271886518 -0.8939450825671003 -0.08853750898337773 -0.5074347638871689
-0.38649325150527747 1.1260687767080166 -0.280811141481351 -0.5615330568732753 -1.6272321092582727 -0.3016762321534212 0.02805888574605524 -0.6271021225453491
-0.8775092969899815 -1.4861937081528025 1.452618721252688 0.09091517762953483 -1.216801087171205 0.5272722119202988 1.0324371478291656 -0.6049110676119229
-0.020730923592371744 -0.813737757647566 -0.541088443025682 -0.07288575500294149 1.5864079166245817 -0.05226477998274278 -0.05001622128928348 -1.3641082102613864
0.22508342826279187 0.5375300773799233 0.2919002907737465 0.72723212003116 -1.565671372441138 -2.1259465316481685 -0.6466762619550869 0.7256012433852187
1.7397675286275167 0.8316544587455565 0.0898839944552915 0.36762751559349666 -0.4269063602865651 0.7083212899472943 -1.0346520882854924 0.8635159625604928
0.5608549211052509 1.1188648426888235 0.845049251475968 -0.13423783778685358 -0.20166267222971732 -0.019596231734649486 0.35362237816811576 1.2327985078879886
-1.871715900023722 -2.820224663773609 1.8147575096052997 0.6380701799517501 1.0844060704827185 1.0249671728179268 0.2973290409343296 -0.3096968272844741
