previous_generated_weights/weights_20250228_171653.npy (npy, 62848 bytes, 1 tensors)

array f8 [784, 10]
000000 cf 30 bb be cf 13 d8 3f 29 69 e3 46 e4 84 ea 3f
       0.37620919824690885 0.828722132161862
000010 91 1f 7e 1c 04 24 f7 bf 4f a3 4e 6e 1f 02 ef 3f
       -1.4462929833407296 0.9690091280400369
000020 2c 49 b5 ba 43 80 ff 3f 74 64 9b a5 6e 01 dc 3f
       1.9688145917212507 0.4375874154334902
000030 34 ac 53 1b 38 e5 db bf 8d 9c e6 59 4d 43 bf 3f
       -0.4358654276717886 0.12212069935650245
000040 fa 08 30 92 b7 cd fa bf ca 31 60 da 05 34 f1 bf
       -1.675223895116288 -1.0752008943846811
000050 ad ec 2e c4 e5 3a d2 3f 67 f3 90 24 52 0b e9 bf
       0.2848448196270493 -0.7826319421943538
000060 13 a9 fa bd 68 a9 c9 bf 64 0b a8 f8 e4 9a f8 bf
       -0.20048245693517028 -1.5378160203115039
000070 c3 43 28 e6 0e 50 d7 bf f1 06 14 db c5 79 c4 3f
       -0.3642613647107817 0.15996621319941753
000080 f9 71 2c d4 fb 6c 89 3f 59 30 ff 1d 15 ee f9 bf
       0.01241490117313847 -1.6206256076575498
000090 5a f0 f8 41 ce bf 02 c0 9d 49 32 94 28 1c b7 bf
       -2.343655124101173 -0.09027341478421254
0000a0 e2 76 36 3c 02 a1 71 bf da b7 26 51 b3 84 d8 3f
       -0.004303940516732859 0.3830993931286436
0000b0 68 91 8e df 3e fb e1 bf 1b 6c ff c3 f4 1f fb bf
       -0.5619196287484955 -1.6953017860566948
0000c0 e7 82 80 a6 df 3b ca bf 09 80 af 2a b2 1a ff 3f
       -0.20495219831447928 1.944017569294376
0000d0 df 42 be d7 85 ca de 3f 7f 9f 78 ae 5c 1f 00 c0
       0.4811110121600403 -2.015313494735835
0000e0 32 7d a1 2a 30 3f dd 3f a0 2d 53 71 0a 10 fb bf
       0.45698169863858873 -1.6914162089113702
0000f0 fa 8e 94 20 a8 73 d5 3f 0a 89 fb d3 5c d2 de 3f
       0.33518412763281413 0.4815895147459207
000100 ea ad 9e fa a7 3c b1 3f b4 d7 3b b6 98 a4 e8 3f
       0.06733178967140643 0.7700923499348762
000110 ea c1 18 3a 31 8a e8 bf 73 a6 af 75 c5 7c e6 3f
       -0.766869176359305 0.7027308748776718
000120 f5 e4 1e d2 a4 4d ee 3f a8 1e c2 6b bb a9 d8 3f
       0.9469780067367127 0.385359626038261
000130 ae db 43 63 9d 0c d3 3f 89 1f 6c 50 95 dc e9 bf
       0.29764494603972025 -0.8081766672848839
000140 4d ec 05 5d 53 4f d2 3f 48 48 75 ab 71 7f f0 3f
       0.2860916527203628 1.0311142633040777
000150 d3 24 e1 d1 47 af f8 3f 01 3a aa 45 09 0d d0 bf
       1.5427931021134114 -0.25079566767900024
000160 c0 aa c2 12 a5 7a f2 3f 43 1d a0 7b f0 f7 ea 3f
       1.15494258240021 0.842766038375807
000170 b9 91 0a 18 e0 4a fc bf dd fc 06 a4 b8 df d8 3f
       -1.7682801188576447 0.3886548616246282
000180 8b cb 10 57 d5 41 de 3f ee 52 e9 f3 69 96 f3 3f
       0.4727681493997628 1.2242221381940754
000190 bb 0d b0 bd 63 03 f2 bf f6 7b 7b e0 f3 bf cb bf
       -1.1258275422741082 -0.2167954298119807
0001a0 42 9f 00 61 84 2a e0 bf 8c c9 da 33 ec 06 e4 bf
       -0.5051900763109887 -0.6258450520311256
0001b0 51 0b 7f a2 ea 28 f7 bf 6f 0d 80 a6 82 44 d8 bf
       -1.447489390135804 -0.3791815401056828
0001c0 9b c7 06 57 24 2b df bf da 39 55 a6 8e a7 f5 bf
       -0.4870081758373261 -1.3534075257663205
0001d0 57 50 74 31 a0 a5 d5 bf 2e f3 83 1f 6b f7 e6 3f
       -0.33823399381185965 0.7177024474654894
0001e0 80 73 f0 c0 27 06 e9 3f e0 2a 5c e1 07 ae e0 3f
       0.7820013779015511 0.5212439920008727
0001f0 e8 c3 dd fc bf 98 f5 bf 27 f6 58 8d 76 05 f3 3f
       -1.349792468794698 1.1888337632548287
000200 d5 36 4a f0 42 d2 f7 bf 13 33 15 2f cd e2 f3 3f
       -1.488833368904513 1.2428714598820008
000210 4b 65 d3 3c da 9f eb 3f d9 b0 02 db db f6 e8 bf
       0.8632632434848032 -0.7801341321515124
000220 5a ca 1b 64 46 5e d1 bf 25 6f 2b ee dd f4 e9 3f
       -0.2713790872213956 0.8111409808875335
000230 63 3f e6 f1 6b 65 fd bf 76 af 28 6f 6f 3c e4 3f
       -1.837261147422361 0.6323773547241973
000240 44 0b fb d8 43 45 d3 3f 75 0a aa db 50 be bb bf
       0.3011026019050187 -0.10837273943801924
000250 8f 4c f5 39 d7 19 02 c0 1d d8 85 24 f9 58 eb 3f
       -2.262617543028291 0.8546109879814626
000260 5c ff da 34 1b c6 e1 bf 92 70 19 ae e1 2b 00 40
       -0.5554328949292358 2.0214265443338
000270 5e 97 8e 72 da 91 e4 3f b1 7d b2 db 8c 82 e4 bf
       0.6428043591920234 -0.6409363070451289
000280 8d 34 e3 34 2c 2f de bf 96 53 47 b8 82 4e e0 bf
       -0.47162919201657233 -0.5095838164512425
000290 a6 06 e5 f1 8e 8e f2 bf 33 d8 c3 85 fe 70 ea 3f
       -1.1598042916306581 0.8262932407949449
0002a0 16 ce 11 8f 70 4c d4 3f b0 9d 9c 2a 45 2e ee bf
       0.31716550799976184 -0.9431482155095434
0002b0 fa 79 a2 6e d6 03 e0 bf aa 40 88 8e 2d 9d a3 bf
       -0.5004684601624938 -0.0383085476388499
0002c0 3b c8 20 e1 77 48 c3 bf 02 cb 2a db 8d f0 f0 bf
       -0.15064905636387657 -1.0587290345399087
0002d0 3a c1 25 a4 65 62 eb bf 32 51 af 5c 04 2c ef 3f
       -0.8557613569264853 0.9741231737375868
0002e0 ce c0 cb 30 f8 f5 ec 3f 1d d9 0d bd c6 6c e9 bf
       0.9050255730672008 -0.7945283596480156
0002f0 52 eb cc 04 6f ff d6 bf 62 3f 7d c9 5f ba cb bf
       -0.35934043377681235 -0.2166251882395001
000300 f0 86 b7 06 c2 e9 f6 bf 2f 88 20 4b 2b 87 e5 3f
       -1.4320698034647954 0.6727501361203901
000310 a9 07 58 60 5f cb f3 3f e2 b9 64 0f 22 87 00 40
       1.2371515048439312 2.06598293329374
000320 1c 12 0b 38 33 c6 f8 bf cc 53 9a 03 e5 7a d0 3f
       -1.548388689917494 0.25750089027252154
000330 7b 93 e1 c5 7f 88 ef bf a0 73 59 48 91 a0 ea 3f
       -0.9854124894014683 0.8321005261492367
000340 46 68 ad 5f 9a e7 f6 3f 36 33 7f c2 94 92 f2 3f
       1.4315437066457135 1.1607863996061503
000350 e9 f2 04 4b ab 19 e5 3f 72 72 4b cd f5 6c dc bf
       0.6593834367009467 -0.44415040062248246
000360 3e e0 3b 58 0b f7 e2 bf 6a b9 2b 2f ff 44 e8 bf
       -0.5926567767446682 -0.7584224625877998
000370 8a 92 39 82 aa 96 e3 3f 09 42 50 78 d0 c1 f0 3f
       0.6121418517546584 1.0473179530855552
000380 01 41 d8 7f 9e 9a da bf d1 8a c1 85 40 7d dc 3f
       -0.4156872032626922 0.44514477789031753
000390 4a fc 26 a9 15 12 f2 bf 29 83 2f 2f 81 b7 d8 3f
       -1.1294151885520187 0.386200233535464
0003a0 d7 88 e9 70 6b 8d d6 bf bb b4 54 d2 a1 5e e4 bf
       -0.3523815729769359 -0.6365517719292692
0003b0 ee c2 7e 0a ad 3a ac 3f ee 0e fe 04 8c 1d eb 3f
       0.05513516190638322 0.8473568055637466
0003c0 ba 47 f2 be 2c a6 d3 bf f3 7f 24 70 67 82 e4 bf
       -0.3070175041876798 -0.6409184637341226
0003d0 1a d7 34 e0 79 5f e3 bf d3 00 db bb d6 02 df 3f
       -0.6054047946006194 0.48454826684247826
0003e0 d8 83 42 4a df 67 d6 bf cd f2 12 29 31 fc ea 3f
       -0.3500898575967404 0.8432851602770711
0003f0 b7 a8 58 c2 d0 94 c5 3f f3 11 dd 1b f9 0b e1 bf
       0.16860398759428616 -0.5327115577898084
000400 b4 57 f8 a2 fd 38 ee bf 35 f3 fb 8d fb 45 d0 bf
       -0.9444568808564697 -0.2542714010776764
000410 d0 24 55 b9 ac 23 d2 bf 0d 4a 22 b7 7e bb b4 3f
       -0.2834274110687831 0.08098594637912289
000420 4c 13 a9 1d 34 3e f1 bf 84 19 c3 5f 58 9e dd bf
       -1.0776864203082424 -0.462789624707874
000430 d1 96 63 af d3 a7 df bf 89 6e 65 01 0b 1c e3 3f
       -0.4946183407576941 0.5971732165593987
000440 23 19 f0 41 86 51 e1 bf dc 22 ba 44 9a 35 f0 bf
       -0.5412017143105782 -1.0130865749981046
000450 03 c6 2e 45 75 81 af 3f 3c fa 32 bc 27 e6 f0 bf
       0.061534561820177934 -1.056190238144736
000460 1f 97 c6 95 a1 78 f7 bf a4 b1 9f 05 ba 5f e7 3f
       -1.4669509745230653 0.7304353818740776
000470 04 4d f8 29 90 a2 c2 3f 46 16 46 03 96 0c d2 3f
       0.1455860333377147 0.282018187710808
000480 7d 51 f6 eb 5f 09 ef 3f da b5 b5 c6 65 69 05 40
       0.969894371856341 2.6764636539653397
000490 75 35 6a 2a ea 59 cf 3f 61 73 b2 15 de 78 e1 3f
       0.24493147917784666 0.546004335763069
0004a0 d6 4b 4f d1 43 5f d3 bf d5 61 91 4d 4a 0c df 3f
       -0.3026895088234459 0.48512513709058896
0004b0 c8 fd 1f e4 75 c4 da 3f 0d 3a 71 84 04 2e e0 3f
       0.4182409980566857 0.5056173884166256
0004c0 a0 df 9a a4 54 e2 cb 3f 5c e4 e1 13 90 65 f3 3f
       0.2178445628867367 1.2122956062942398
0004d0 84 b6 fc d1 b8 17 f1 3f e1 50 b0 ba ed 3f fd bf
       1.0682914927123486 -1.8281075756577183
0004e0 19 d8 2c 9f 20 9f cc 3f 31 04 40 a6 67 b0 f5 3f
       0.2236061837408563 1.3555675977843402
0004f0 e8 6b 05 bf 14 a9 e4 3f 90 f3 05 20 55 b0 f3 bf
       0.6456397753603342 -1.2305499316127886
000500 2d c3 08 6a dd 32 eb bf a4 8c ad 0e 80 f8 f0 bf
       -0.8499590941411036 -1.06066899999204
000510 77 13 83 bd 77 0b db bf a6 be a5 25 d0 fe 8e 3f
       -0.4225749350264815 0.015134454869183255
000520 1f a6 aa 78 63 ab e1 bf 63 34 40 8e c8 bc 01 c0
       -0.5521714550752143 -2.217179404577608
000530 ff c2 48 14 76 50 ce 3f 7c d8 d2 82 69 47 f2 bf
       0.2368304823917455 -1.1424346075341694
000540 c8 4c 2e 58 2d 4e e6 3f 27 33 ce c7 90 5c c6 bf
       0.6970431062967686 -0.17469987636686676
000550 c5 b6 bf 2f 79 31 cf 3f 1a 40 3c e8 4d ba c3 3f
       0.24369730788696678 0.1541230567895589
000560 b3 36 00 51 71 75 e8 bf 67 d2 0d b2 c4 49 e5 bf
       -0.7643362600371887 -0.6652549245469118
000570 68 13 04 e3 3e dd e9 bf 24 42 e0 26 ae cd 84 3f
       -0.8082575258164129 0.010157929002191209
000580 60 02 34 09 9b e9 dc bf 4e e1 03 5c b9 8e e2 bf
       -0.45175815485712256 -0.5799223706408527
000590 e9 8d 04 16 80 1f e6 3f 60 93 3e a0 6f f1 ca 3f
       0.6913452558550804 0.2104930431788956
0005a0 3f 6a 66 cd 2f 4e cc 3f bb 50 47 80 23 37 d1 bf
       0.22113606957721463 -0.26899039771275185
0005b0 03 33 a7 f4 2d cb e3 3f e4 63 30 14 7e fe d8 3f
       0.6185521868115703 0.3905329892309608
0005c0 25 15 5c 83 bb 2a fe bf 08 07 99 42 99 c1 dd 3f
       -1.8854327327001752 0.46494132522285314
0005d0 4b 6e ad 04 a6 8e f5 3f 5d 7e a9 86 4c 43 ed 3f
       1.3473262961114354 0.9144652013892017
0005e0 f8 92 d5 3c 60 be f8 bf ae b0 c1 b3 02 39 0c c0
       -1.546478498109705 -3.527837185238318
0005f0 f0 be d8 a8 ee d2 b8 3f 0c d9 50 3f 88 ab f6 3f
       0.09696857092125888 1.416877982451811
000600 63 61 00 3e fe 4f ed 3f 9c e4 74 12 ca ec d8 bf
       0.9160147868124507 -0.38945247461703913
000610 c3 53 c3 e9 b9 62 df bf cc dc cc 9d 18 e7 f7 bf
       -0.49040077045838987 -1.4939199604103122
000620 aa 9b ae ad 77 e5 f3 3f 46 2d 41 51 33 66 e0 3f
       1.2435223373847557 0.5124756419185494
000630 f6 ff 04 af 8b 68 e7 bf e2 fb 69 28 41 e4 e0 bf
       -0.73151191886427 -0.5278631009422237
000640 2b 1c d7 f0 99 22 d8 3f 2d c0 ec 77 b7 7d 01 c0
       0.3771118976550862 -2.1863850945592476
000650 40 f2 c1 48 76 2a a8 bf e0 5d 21 00 b8 2f eb 3f
       -0.04719895971445398 0.8495750429673841
000660 39 ed a6 59 f9 bf ea 3f ad 9a 69 4d 0a 91 e1 3f
       0.8359343291298621 0.5489551078761302
000670 fe b8 df 84 2a 8e db 3f a2 b5 44 51 04 16 c6 bf
       0.4305521295163003 -0.17254690139945433
000680 9d 6d 41 a7 1f 70 c3 3f da 62 5a 73 5e 52 ed bf
       0.15185924212242422 -0.916304803179709
000690 26 b9 6e a2 26 d2 de 3f d0 a9 19 3e 1c 20 cf bf
       0.48157659399557173 -0.24316742927778856
0006a0 65 0e 2e c4 63 19 f7 3f 4c e1 55 dc 9f e1 fc 3f
       1.443698660209429 1.8050840956548937
0006b0 a8 b5 45 65 21 13 d6 3f 13 d6 5f 66 02 79 0a 40
       0.3449176300990424 3.309086608695688
0006c0 f9 3c 5e 93 e8 29 f1 bf 5a 18 3c b6 aa 1c f8 3f
       -1.072731567055426 1.5069987410111225
0006d0 ea 24 98 7f ec 3a cd 3f 5e de 3b 04 1e 52 e3 3f
       0.22836071233931615 0.6037740786259282
0006e0 77 cb ec e2 8e 39 f0 3f 0d 9a 35 82 e6 8d d6 bf
       1.0140522827393548 -0.35241091457138013
0006f0 d4 12 36 93 a0 ce fb bf b1 b5 25 b4 ac 52 f4 bf
       -1.7379461050451726 -1.2701842343334244
000700 52 47 29 aa ed ab e4 bf a3 94 2c f4 23 16 d1 bf
       -0.6459873507940108 -0.2669763454926601
000710 6a 6b 1c c5 b2 94 e7 3f d3 c0 d5 13 b9 f9 f0 bf
       0.7369016504120343 -1.0609675192645696
000720 46 69 98 f7 87 76 ea 3f e2 5a 5e 38 0e 18 e5 3f
       0.8269691310736469 0.6591864682148663
000730 a3 2c b3 ea aa fd d5 bf f6 8a e1 b6 1f 69 f7 3f
       -0.34360764427101226 1.4631650108137229
000740 f5 cf f0 63 09 a6 ec 3f 5a 39 78 9e 07 a4 f5 bf
       0.8952681495634339 -1.3525463285655719
000750 39 39 26 6d 0f c2 df bf 49 65 0d 81 18 5a c2 3f
       -0.49621949824440353 0.14337450314887182
000760 c5 21 47 31 bc 1e ee 3f 97 e0 52 f9 d8 7e fb 3f
       0.9412518465479073 1.7184686412056516
000770 f7 5b 22 8f 62 f1 f8 3f 03 d8 da 48 f3 7d f6 3f
       1.5589318839245132 1.4057495923893846
000780 34 ce 58 86 e2 f4 d6 3f 0f c2 cb 78 48 8b e0 bf
       0.3586965858441744 -0.5170023307128434
000790 28 1b c3 88 73 f6 bd 3f da 83 71 2c 0c fc f1 3f
       0.11704179848593965 1.1240350471564313
0007a0 4f 38 b1 5e 45 7a ec bf e1 6a bd 06 79 4e dd bf
       -0.8899256562670049 -0.45791459711260357
0007b0 62 c7 ea 2b bd 59 c5 3f de c3 47 f4 12 d9 cc bf
       0.16680111545934567 -0.22537457397223098
0007c0 f3 60 c7 bf 12 82 fc bf b1 1a 85 76 a7 0a fa 3f
       -1.7817561618194844 1.627601111382017
0007d0 03 4d 70 3d 7b 30 f4 bf 32 01 6f 27 c4 73 e8 bf
       -1.2618362808178183 -0.7641316194713339
0007e0 56 dd 80 c9 c0 66 fb 3f c7 1e 47 f4 21 15 d9 3f
       1.7125861998773266 0.3919148335958024
0007f0 ad 9d fe 38 24 ac c7 bf 0b 18 19 2a 59 83 f6 3f
       -0.18494084151209958 1.4070674557165173
