previous_generated_weights/weights_20250228_172206.npy (npy, 62848 bytes, 1 tensors)

array f8 [784, 10]
00000000: 0938 4b57 8acf e53f 9585 488b cea0 0240
00000010: 235b 0572 4e88 babf 121a 60e5 4d75 f8bf
00000020: ce2c 6411 44b2 0840 9527 5b06 e34a e3bf
00000030: 1881 371a 838e f8bf 19f2 89ee 8c4f e5bf
00000040: 5234 81ba aebe f63f 902a babd 0cb3 b33f
00000050: e087 f301 d376 efbf 85f1 5e4b 457e f23f
00000060: 20e9 091c 72a7 febf 8c68 9e04 1792 ea3f
00000070: 27c4 9ad3 f7e3 b4bf a1b0 1b41 65ca f83f
00000080: 02f9 b22c 3f60 dc3f f247 0f60 cfaf ebbf
00000090: ef86 a895 561a b73f c542 913b afba f03f
000000a0: 84c4 d657 a99a dc3f 85a7 79cb fcca f0bf
000000b0: bfe7 9f9f cf5b ecbf f004 eea1 c9ee db3f
000000c0: 21df 72d6 400c df3f 0e41 e9f8 3d53 cebf
000000d0: f671 0c86 aea4 e63f e7b2 a547 3ef6 f0bf
000000e0: 7608 2928 e0e0 f53f 4474 c1d3 8570 f03f
000000f0: ca1a 3933 0149 e2bf 1df9 f445 0e02 df3f
00000100: b9ad 0718 16a6 f0bf 7953 f63f 8152 d73f
00000110: 7ef2 750d 8652 ebbf c49e 6da3 435b 0040
00000120: 2009 fce8 bf25 f1bf 29ac 9b12 b239 f73f
00000130: ee6a 25f4 51cc e43f cce9 6cc9 4a9a f33f
00000140: dac8 a8a7 cdaa e93f e82c e88e b171 d2bf
00000150: 98f9 6979 0aab fb3f 59e1 7137 ce9e b83f
00000160: 0a0c b164 d7f1 be3f ac72 51dd 7183 bd3f
00000170: 73e0 9ef3 1d36 f2bf ca60 e227 441f ea3f
00000180: 415e a007 2b3b cbbf 67ec 173b 1ead e2bf
00000190: 3887 eae3 7043 e2bf 19e5 9262 c4d5 f43f
000001a0: 9867 f318 abd5 e2bf 1e41 c2eb a3a8 d6bf
000001b0: 878b c2b3 44cc e73f 0f21 ff40 d49b d4bf
000001c0: 91ba 7119 e20f c63f 8599 4aca fe61 01c0
000001d0: 2559 9d54 6b78 eebf 30dc 01a3 0372 ef3f
000001e0: a40e 2f9b 56aa ecbf 5646 04fc 27ac e4bf
000001f0: 2440 97b4 7980 c4bf ed0e 95f8 7915 f13f
00000200: 4afc 1a5f ab76 d9bf 2eef 5e0d 7451 f2bf
00000210: 6caf a748 3d1c e73f 4ee1 1c37 47d1 fa3f
00000220: 7021 891c 4f24 d6bf df9f d7fd 022d e3bf
00000230: ea88 62b6 0a2a edbf 7262 06bf f30c f43f
00000240: c3d2 2541 d6f6 d3bf 35a2 c5e6 dfb6 cb3f
00000250: fb56 8081 aaa8 d6bf fba4 a18c e76d e73f
00000260: b11d fe5f 2fde bdbf 382a 91fd 9674 f03f
00000270: e781 21a3 fbc6 c23f 5649 2ba4 e4c2 efbf
00000280: edc9 1984 73f6 fa3f 0759 7e63 a96a 0240
00000290: 4206 39be 5559 aabf fd76 9e4c cb7e e63f
000002a0: 5486 3bee 5816 fcbf 05b2 6043 68fc dc3f
000002b0: c0df 2254 14a7 e73f 1819 5934 c463 dc3f
000002c0: 51ee f8ba b12b f2bf 96d9 a610 4e40 dabf
000002d0: 7fe0 690a 4a77 b63f bdd0 e6a4 00c9 a5bf
000002e0: a87a e89c 5bf5 e8bf f9d6 c1a1 a079 e43f
000002f0: 0348 da8c 4847 edbf 77cb 7706 31f8 e1bf
00000300: 5d31 2ef6 8c49 d33f f69c 9774 ef3b e8bf
00000310: aa07 ab5e 6a9d c33f ed6a 4a56 faeb fdbf
00000320: a372 98e7 c932 e63f a174 be12 1139 e43f
00000330: 3e19 a476 65fc d3bf f67d f926 0fae b2bf
00000340: 9e86 d305 3825 9ebf 23ea 2e4d 3f4c cb3f
00000350: 2473 0edb 8c75 ffbf 31c1 9a51 11df cdbf
00000360: 2fba 9e2d f6c1 ecbf dc67 3fae 08f2 dcbf
00000370: b225 a6bd 4416 c0bf 1ca8 3dd3 7e4a f23f
00000380: 68d9 410a 3d02 e43f 37fe 5973 8666 f33f
00000390: 5b39 b491 afc3 e03f 6ce3 cf9b dd79 dabf
000003a0: a744 2596 c3c2 f9bf 581b e4ba 5a88 c3bf
000003b0: ef1a 630e 181b f1bf 1421 5108 fcee af3f
000003c0: 0333 fb55 3303 0440 106f aec6 4ac0 c73f
000003d0: dff6 0d16 5d9b c33f 8065 3521 72f2 da3f
000003e0: fbb1 66a0 a763 edbf 43ad fad9 757c dc3f
000003f0: e63b 93c0 763e f63f 9483 6715 d27c cfbf
00000400: c900 b35a 76da f33f bf1e 5c1e a59a d73f
00000410: 3f5b 6821 a371 ecbf 39b8 0d20 b205 dfbf
00000420: 123d adc5 3412 f33f b9fd 2e8c 26cb d13f
00000430: f7fb 5b05 df43 b33f fff7 b610 4563 e83f
00000440: ad8d 45b7 2e00 e43f d5a6 7310 4ad1 0540
00000450: 08f5 8fa4 74bf ca3f 3150 c1f1 ac65 b6bf
00000460: 2a6a b8e2 1e39 a3bf 173e 16d6 e6da d4bf
00000470: 5206 17e2 ba06 fe3f 9566 cdf7 4c52 0640
00000480: a15d df18 2ab2 f03f 7c82 5f5a 45c2 ef3f
00000490: ccda 9806 2d1e debf 66b6 cc23 2743 f53f
000004a0: 7bcb c2be 1697 f3bf 3642 5b76 33a6 e23f
000004b0: 9aa2 6de0 f4bd cbbf 98b7 db7c c138 0440
000004c0: afa5 8c9f 01a5 aabf 4a7a d085 37a4 f3bf
000004d0: 0ade 0131 065b d0bf dcac a089 7e4b d33f
000004e0: 82c9 846d 61b1 f7bf 7ec3 7ded b63b ff3f
000004f0: b56d b3ae b0cc fdbf 4a84 5300 83b9 fbbf
00000500: 70c6 d30b 3d6a c23f 55aa 8357 c562 c73f
00000510: da03 a780 82e9 dd3f 08ca c18f 0231 cbbf
00000520: 1b32 148f c568 cfbf 9462 f8da 46eb e23f
00000530: bb2d 9a32 2320 89bf 4451 bae4 af2a 02c0
00000540: d56d 8d80 f5ab eb3f c6cb e3f2 f6e0 da3f
00000550: 27fa 29f2 01e9 cf3f 1b0c 5ece fbdb f1bf
00000560: 0a8e 07c9 6215 e03f 970c e5be 408c eb3f
00000570: 453b 22c6 eaaa 0140 0828 8059 7acc f1bf
00000580: 3915 47a1 7bfd ea3f 4fd3 569d 3d3e 85bf
00000590: 744a 107d dec4 ec3f 3b8f 8a7a 0f5e ea3f
000005a0: 8e27 6f0c 2f8b a23f 1de0 fe03 4248 f6bf
000005b0: f13e 1547 b521 e7bf 1272 dd19 347d f3bf
000005c0: e0ab a3f7 46e6 ea3f b406 7001 a539 e23f
000005d0: 853e 80c6 fe69 eb3f 7ada 70e3 3a34 fcbf
000005e0: 90f3 ab46 5cee c33f a4b5 042f fef7 b33f
000005f0: 906a 81b3 26f0 f5bf 0b6d 5066 13aa cabf
00000600: ab6f 670b 3d97 ebbf e985 77a3 4c6a edbf
00000610: 0768 63d5 032a d03f 60c1 626e 184f f4bf
00000620: 68e8 20a3 a425 dbbf 5830 ebf7 c845 f0bf
00000630: b84c f282 734b eabf 6029 4e87 3f45 c8bf
00000640: 0762 a4da e630 bf3f 9d3a c2da b221 f33f
00000650: 4a4e 0dea 43d5 f43f b766 f4b8 a3f1 f93f
00000660: 98bf 6812 92e0 d13f 8cd9 065d f0db e73f
00000670: c7cc cb63 7bbd e8bf 4ea7 e68a 9f0c c43f
00000680: 3bde 2450 99ec f3bf 7023 07e7 f0b1 a2bf
00000690: 10b3 7b59 3c83 cebf 854d cc2e e29e cc3f
000006a0: f2fc b19c ebf3 dd3f 9bec 254d 6946 df3f
000006b0: 4d5b c330 c628 f73f bf74 3f15 e73f cf3f
000006c0: 4fba e8a4 1e60 f23f 5d78 5303 2442 d1bf
000006d0: 7835 5746 9d08 e7bf 5194 ec5a eb28 0440
000006e0: 2fe9 fc69 ec2f eb3f 257d 692e ca4a f0bf
000006f0: f3e5 f3fb 85fb d8bf 6135 b6cf d0d0 e23f
00000700: 83fd 03d9 1055 fd3f 05ae ca6c 8a04 f23f
00000710: 058c 5db3 3a5e d73f b8f2 d4da 22c0 d0bf
00000720: a4b2 83f2 dce0 d33f 9628 7f0f bcce da3f
00000730: 446f e595 87d4 e1bf 8c7a 4d26 6478 d83f
00000740: 8fa6 5b65 8bd8 f03f 9621 e71f 602e fe3f
00000750: 5db0 d7be debb d03f 3025 c065 e885 c93f
00000760: ed0c 6e43 7cba b63f 3a45 0ef5 6e54 f93f
00000770: 598a 835d 04b7 ddbf c0ca 6706 c805 d93f
00000780: 8de0 be83 5d2e e9bf d3b5 6306 8a56 0040
00000790: de05 0bf3 6da3 eb3f a9e5 3fca 7826 e8bf
000007a0: 8e77 950a 4a33 fb3f 76ee d28e cbbf afbf
000007b0: a01b fab1 9166 d4bf d491 a6b0 789b f4bf
000007c0: 70e5 47b3 9d27 dd3f e922 52cb d82d ee3f
000007d0: 4f25 f5bf 624c f73f e2c2 41ca 0d6d f0bf
000007e0: 2667 d2d1 25f5 c43f b0ed 7922 e557 b83f
000007f0: ae33 eae2 5719 d4bf e01a dfba 0006 e0bf
0.6815845208127495 2.3285189515597247 -0.10364237102235711 -1.5286387405373074 3.087043891782378 -0.6028914569990201 -1.5347929977506904 -0.665960756202881
1.4215533528652213 0.07695083267223368 -0.9832549131499455 1.1558278030562132 -1.9158803076994175 0.830333241482792 -0.08160351673247189 1.5494129699027683
0.4433744369997755 -0.8652111889043665 0.09024563936011608 1.0455772711613218 0.4469397886087523 -1.049557490181969 -0.8862074010532907 0.43644944013074305
0.4851228803849939 -0.23691534665932362 0.7076027506005278 -1.0601179884644638 1.3674012726555964 1.0274713775354636 -0.5714117050600518 0.484500473325072
-1.0405484141036665 0.3644106983786553 -0.8538236868767652 2.044562603743403 -1.0717162228543842 1.4515858389738787 0.6499414223174804 1.2251689785176607
0.802100017032241 -0.2881893058372058 1.729258035920429 0.09617318013795763 0.12087770660677691 0.11528693822169583 -1.1382121578626794 0.816316678904536
-0.2127431666601627 -0.5836325792473759 -0.5707325412260849 1.3021892405070672 -0.5885825621910383 -0.35404298804589185 0.7436851035057409 -0.3220110544903187
0.1723597168197171 -2.1728492549911516 -0.9521996166829793 0.982667749761168 -0.8957932501729897 -0.6460151598168504 -0.1601707584181905 1.067743273758363
-0.39786800658834365 -1.1448860666559528 0.7221971911471718 1.676093306812692 -0.3459661272686594 -0.5992445905549139 -0.9113820612149344 1.2531621419822412
-0.3119407306869954 0.21651839035190937 -0.35404455801595675 0.732166075392484 -0.11667152494020773 1.028464308258334 0.14669747796416674 -0.9925406652858253
1.6851687584099821 2.3020808957036283 -0.051462821455527066 0.7029778000321297 -1.7554559045751335 0.45290571765761484 0.7391454356465985 0.4435892592631645
-1.1356675437554211 -0.4101748621573277 0.08775770906675183 -0.042549152497856714 -0.779950911008048 0.6398471030540512 -0.914951586821417 -0.5615468145682446
0.3013641742807261 -0.7573163296882786 0.15324144003358003 -1.870111786911987 0.693699791274032 0.6319661489575489 -0.3122800501445403 -0.07296843244102277
-0.029438853602988695 0.21326438206399798 -1.966198783578144 -0.2333699844798587 -0.8986769572273426 -0.4522725774419294 -0.12567958126264284 1.143187356147343
0.6252732467972182 1.2125305658263537 0.5238874288350347 -0.413688089523524 -1.6100498070775673 -0.15259870648898288 -1.0691147386548285 0.06237018205189507
2.501562759140485 0.18555578900565495 0.15317882134325253 0.4210477184584178 -0.91841489151335 0.4450964573577105 1.3902499697176096 -0.24599672360548352
1.2408355277003003 0.36881378140286 -0.88887173199587 -0.48472264414056415 1.1919448587175947 0.27802432718086895 0.07525438195078481 0.7621178938350112
0.6250222758794074 2.727192047624025 0.20896776232977055 -0.08748894598221636 -0.03754517095167771 -0.3258606997196422 1.8766430694235123 2.7901858672674487
1.0434971782286555 0.992464710721904 -0.4705917896675771 1.3288947485374591 -1.2243869258497557 0.5827882110261899 -0.21673451383982895 2.527712798552738
-0.05204014847397375 -1.2275920130847617 -0.2555556753718241 0.3014828056354426 -1.4808058050226411 1.9520787503244885 -1.8624731849912284 -1.732790948175778
0.1438671405554035 0.1827017476383214 0.46737730563841995 -0.21243316668876866 -0.2453848789813414 0.591220309902456 -0.012268328649290497 -2.2708433026656696
0.8647410879888705 0.419980752179239 0.24929832767880208 -1.1162069379067876 0.5026105810506476 0.8608707168972555 2.2084556082913047 -1.1124213691823588
0.8434427404360242 -0.010372620929823077 0.8990318720482962 0.8239819901832343 0.03621813799652705 -1.3926410823896795 -0.7228647602405244 -1.218067265544168
0.8406100117402922 0.5695366886213464 0.8566888691875226 -1.7627514728934828 0.1557116837574566 0.078002821425534 -1.3711306583342413 -0.20831530090149672
-0.8622117254958445 -0.9192259972298277 0.2525643905515839 -1.2693104087776064 -0.42417255335352033 -1.017037361557433 -0.821710353617525 -0.18961328608231565
0.12183993184988405 1.1957272095930087 1.3020667212157542 1.6214940285484951 0.2793317012574277 0.7455980126313064 -0.7731301259176683 0.15663522989535256
-1.2452633982301353 -0.03651383228458982 -0.23837999696061063 0.22359874043523234 0.4680127172686773 0.4886725667381115 1.447454634171396 0.24413765466207413
1.1484667245637359 -0.2696619064789781 -0.7198015569535263 2.5199801543663303 0.8496000356747454 -1.0182592213603325 -0.39035176853903336 0.5879901940221935
1.8332680203601235 1.126108574836395 0.3651263000121506 -0.26172706003471147 0.31059955294657926 0.4188680793128098 -0.5571935584698413 0.38234809628003386
1.0528673133179927 1.8863221403317758 0.26146668087927144 0.199399041827101 0.08878304144132061 1.5831136295785897 -0.4642954743596071 0.39097786546259883
-0.7869098256260415 2.042255449216762 0.8636998888907177 -0.7546962690532172 1.7000217832023483 -0.06201015585380969 -0.3187603223854527 -1.2879568958679686
0.4555429697789668 0.9430965396032579 1.4561488626807948 -1.0266244793567059 0.16373131509026811 0.09509117213922624 -0.31404683265355515 -0.5007327699503001
