previous_generated_weights/weights_20250228_172113.npy (npy, 62848 bytes, 1 tensors)

array f8 [784, 10]
-0.08169457277804512 -1.2791073922926997 -0.16088489249886986 0.82005908937513 0.45457131595153794 -1.5862675169482574 -0.6379883732527627 0.5851721770141676
0.463001263822588 -0.8886292733812354 -0.5861602397190302 0.22038572367971546 0.11030931564784825 -0.08083212165618343 -0.44406566336339787 0.9452378805991258
0.2097481247517833 -0.6075513174052075 0.39956441677892834 -0.9210684252652708 2.586514463628969 0.3303225963678873 1.2966955932764508 -0.27019583925204144
0.0019490089915034732 0.0031733566564965416 -0.9739639711365765 0.2930780413752392 -0.05055721068230871 0.2072521780048158 -2.659001418557338 -1.337136653842891
-0.3218471811162114 0.7911339259765229 0.28181149035268854 0.5210905935878648 1.2666881769717018 -0.08625717072164457 -0.705240842737632 0.22722169607286993
-0.7015649550794442 -1.3436501369182512 1.3167655070550235 -1.130168173254243 1.8046576536632177 1.015460723019868 -0.590271482798919 1.0139941207378085
0.4688156671725462 1.3803821902609796 -0.97159545348381 0.703844212140157 0.6618980016642227 0.15527101710169086 0.33308671287584624 -0.2442393064361517
-0.8213410616172768 -0.8750314283224042 -1.658070983921395 1.362726486520598 -1.0083126605908628 -1.2591619683641657 0.5368002582282867 -0.04576175106802875
-0.4001762294577798 -1.408776157320705 0.20772847646044804 -0.11079604473313456 0.5455791375454575 2.2597786399391273 1.0743609532083482 -2.7196527110966167
0.6278168090058867 -1.6686913437350253 -0.7078967989590588 0.9560371798357936 -0.007748701600118799 0.7937601988748276 1.5768094109603499 -0.47032743044665726
-0.615552838981777 0.05494677193093947 0.075171989037698 0.039578487906081775 0.1644176333617825 1.294890405664927 -0.881134054952828 -0.5463607750200588
1.0313858757315724 1.8467845062934483 -1.8789540810936716 -3.737744192317785 -0.3352524139107488 -0.23926247057549782 0.5050122323073636 -0.1693252663337776
-1.39476782813433 1.736057916636532 -1.4354715773532274 -0.20024767786886333 -1.885638891871464 0.7581582635868936 -0.2150799448359663 2.1737351190954075
-0.11004138199488521 -0.42555526815750466 1.4759294383269692 0.3510134625073883 -2.3643975117456404 0.11966892764098862 0.18225421709159959 -0.2658425672947312
-0.32255101035427836 0.9093648203530094 -0.26170080098158366 -0.8292509881212942 0.03545778468763519 0.3644608389279042 -0.15684012104627976 0.49229323965588123
-0.4937308435664839 -2.5274540161376104 2.459969100147825 -0.02118785044406624 -0.3558930271695891 0.14399144416444892 -0.5526689613056972 -0.004844409423534909
0.23913069784361168 0.0046672873912859975 0.44279919825067465 0.09771202288289531 -0.013897215604056715 0.8525923923434069 -0.3277654651532542 0.12434822638936985
0.6421657307391577 0.5725793524134982 1.4172723792387942 0.1986110338106518 1.2577181643707263 0.6411787220672526 -1.2032426237221079 0.024219406926941366
0.012955423355593746 -0.3943587587953757 0.7554057718743432 -1.3242739451875365 0.4337247002555935 -0.5726412025307346 0.2373036458422593 0.8324219891499114
-0.36348067070342677 0.09252164610012346 -1.0097541448059195 -0.09249831099873969 0.46199663578214895 1.0410369449281518 -0.15195267521640224 -0.6369362194317589
-0.05830525444425913 -0.2670407420092321 0.8574513201732177 0.6566328041393621 -2.052823203664053 0.5222029873895541 0.06628154444385725 -0.14872817839271774
0.16278363591999956 0.5989454635499616 0.17283782000306813 0.3806167954803871 0.9160154034917511 -0.5394045302149737 -1.3181667442790999 -1.3640978226571632
1.7904380018555761 -0.860805223467116 0.32668197752633293 -0.12846413445217095 1.0181568630091395 -0.8039033927406639 0.5737883612790535 -0.10733569961653737
-1.281756355967042 0.8313759487250227 -0.06429276729757322 1.3854183047220145 1.5512509518449473 0.40983364281195567 -1.4213867042944446 -0.4966958097647229
0.13220215898480323 -0.5379496605258659 0.8052925914438938 0.36503274956122655 1.987872108127957 1.0621714503419186 0.51126543430324 0.6954549328273517
-1.0892943346953035 0.8582178156405853 2.0764529307470188 -0.7888783062888999 -0.9373771831182214 1.0847038774001516 0.022237414907722734 0.6602823547114305
0.5881104526757744 -0.42870489036064435 -0.7853978748220123 1.009950127917454 -1.2661299204385585 2.3082746634091365 -0.38706161349817975 0.7447702540318645
-0.3051263973206105 0.1877821237508307 -0.8690329086717384 0.5714015233832263 -0.9395069734046005 -0.04378497641127788 -0.039988191673336865 1.420342955280108
0.5998773445854821 -0.8217964917410562 -0.9887562768302243 1.000885520287011 -0.09423539900379353 -0.15766696911552033 1.2083205634053416 -0.018725620428797694
1.292138817094354 0.4181010773966417 0.8683967142032843 1.8050814585922168 -1.5456637195909944 0.3320222162045394 -1.533583029883702 0.671528334558622
0.2335444474781898 -0.37157984842570174 1.490478265096054 1.255075306108776 -0.21835052626128945 -0.5196853150604542 -1.7156307717331514 -0.1801693413009243
1.1639271086086924 -0.9519380081283897 -1.2935564048487425 0.20704882028985125 0.23831397806285104 -0.22435657656821983 -1.0154477940617022 0.9650746755073435
00000000: 3ea7 577e efe9 b4bf f980 1f50 3977 f4bf
00000010: e5ff d94b e097 c4bf 4feb 348f ec3d ea3f
00000020: d989 ed49 b217 dd3f 8eff 3f0c 5a61 f9bf
00000030: d629 cb97 666a e4bf 56c2 5900 bbb9 e23f
00000040: d0fa 870d d0a1 dd3f cd19 6ea8 a66f ecbf
00000050: 52e1 791e d3c1 e2bf 7dd6 da71 9935 cc3f
00000060: 7dd2 2637 3b3d bc3f 25c7 faf6 69b1 b4bf
00000070: 9b07 5b63 926b dcbf 99a2 0383 633f ee3f
00000080: fd65 1acc 06d9 ca3f e5b4 dc75 0f71 e3bf
00000090: ed7d ada1 7692 d93f d68f 7c7d 6479 edbf
000000a0: d856 bf7e 2eb1 0440 a0e9 2163 0124 d53f
000000b0: b4d5 dfe0 43bf f43f 2194 467d e34a d1bf
000000c0: 2713 3378 bcee 5f3f 04bf dce1 02ff 693f
000000d0: bd71 707d b62a efbf 0879 b866 cac1 d23f
000000e0: 253d ea7c a2e2 a9bf 2119 4747 3d87 ca3f
000000f0: 60c5 2589 a245 05c0 049c 6867 e964 f5bf
00000100: f90c 4deb 2499 d4bf 7468 5a18 f850 e93f
00000110: 91ea ac0f 3309 d23f c5d1 362e c6ac e03f
00000120: 512c 65d2 5a44 f43f fc81 4b2f f314 b6bf
00000130: 4c92 6b3e 5591 e6bf 698d c9bc 9915 cd3f
00000140: dfbf 4259 3873 e6bf e846 3549 977f f5bf
00000150: bed5 54b5 7811 f53f 6bb6 f138 2b15 f2bf
00000160: 955a 2fb4 e0df fc3f b4e2 3bbe 533f f03f
00000170: c33f 4c05 81e3 e2bf 8c7b 2ee6 5139 f03f
00000180: c6f1 966d 1301 de3f 996d b2a2 0b16 f63f
00000190: d6f7 3459 4f17 efbf 17de 134c e485 e63f
000001a0: 5bf0 cdb7 442e e53f 27f5 3bb2 ebdf c33f
000001b0: 722b a2ee 4a51 d53f 493f c5cc 3b43 cfbf
000001c0: 8f42 d00c 6d48 eabf 99bd f3e8 4100 ecbf
000001d0: 1239 a670 7587 fabf b6fb cf49 bacd f53f
000001e0: 8b16 d674 0c22 f0bf 75db 2705 8725 f4bf
000001f0: 2465 32bc 772d e13f 7660 7d90 156e a7bf
00000200: ad18 8ac2 7c9c d9bf 4e3b 31de 588a f6bf
00000210: 553a 6cc2 d896 ca3f daab a72c 215d bcbf
00000220: 6e67 2461 6275 e13f 3ee7 d5d2 0614 0240
00000230: 6011 621c 9530 f13f 051a d547 d9c1 05c0
00000240: 4ae6 d146 1317 e43f 185d c7b1 f5b2 fabf
00000250: a01c 0f30 17a7 e6bf 28f4 a448 db97 ee3f
00000260: 30f4 573f 1abd 7fbf 3915 e1c9 7b66 e93f
00000270: 7b98 4181 9c3a f93f e286 0b39 d819 debf
00000280: bc5f 0cde 9bb2 e3bf d4a5 edb8 fb21 ac3f
00000290: bcff 7db2 783e b33f b20e 5dae a143 a43f
000002a0: 7458 1613 a30b c53f b4c2 8300 dfb7 f43f
000002b0: a541 ad0b 4032 ecbf 60e8 9097 c97b e1bf
000002c0: be2c dd79 8e80 f03f 4ba3 14e9 6d8c fd3f
000002d0: 94ba 8f27 3210 febf f28c 566d e6e6 0dc0
000002e0: ceb5 698a c674 d5bf 2216 2413 27a0 cebf
000002f0: f2e1 ba69 0f29 e03f d620 a548 73ac c5bf
00000300: 2d99 f511 f850 f6bf 1da7 7eaa e4c6 fb3f
00000310: 451d 710b b1f7 f6bf a0fa c545 b7a1 c9bf
00000320: 3875 caaf 932b febf 0988 691e d542 e83f
00000330: 6548 8c58 bd87 cbbf 9773 f53c cf63 0140
00000340: b7ea df08 ac2b bcbf a620 d829 4c3c dbbf
00000350: 7416 cd2f 689d f73f 7632 7b2b 0177 d63f
00000360: c987 1d3e 49ea 02c0 73c0 9072 9fa2 be3f
00000370: 6bb6 fb2e 1b54 c73f 5e98 1a8b 9003 d1bf
00000380: 44db 30fe aca4 d4bf 2692 7140 8419 ed3f
00000390: d262 63b7 b4bf d0bf 3803 455e 3989 eabf
000003a0: 2477 3ed3 8527 a23f 7f8e f78d 5353 d73f
000003b0: 0817 4c4b 5613 c4bf 244a 1781 bb81 df3f
000003c0: 2640 8940 4999 dfbf 9fa3 abcf 3938 04c0
000003d0: 9471 9247 04ae 0340 a151 eb92 44b2 95bf
000003e0: 3d57 248c f3c6 d6bf fe88 cbc7 4f6e c23f
000003f0: f24f 4ad1 76af e1bf ef25 ae40 bbd7 73bf
00000400: c29e 5aaf d59b ce3f a242 4e6b 011e 733f
00000410: 73a0 cb72 d256 dc3f 0b42 b5b6 a703 b93f
00000420: a2f6 32b4 2476 8cbf dedd 3dd7 6f48 eb3f
00000430: 64da 6500 1cfa d4bf 426f a80d 49d5 bf3f
00000440: 3a5f 8425 9f8c e43f fd62 1fef 9152 e23f
00000450: faac 65cd 25ad f63f 43b6 6b1b 166c c93f
00000460: 33eb f814 9d1f f43f 0370 453d 8984 e43f
00000470: 8fa2 6056 7b40 f3bf e30a b8e2 f8cc 983f
00000480: 82e3 f17c 5f88 8a3f e5b4 fa84 2c3d d9bf
00000490: 3c1e adb9 482c e83f e667 58e0 3930 f5bf
000004a0: dc2b c43e 25c2 db3f 92c5 a6a4 1353 e2bf
000004b0: d999 0e43 f75f ce3f 28d8 7b70 33a3 ea3f
000004c0: 2b8f 596e 4443 d7bf cf0f 2ca4 7faf b73f
000004d0: e911 4ff6 f327 f0bf 45c1 ac24 f8ad b7bf
000004e0: 73f7 6256 5a91 dd3f 804e 065b 16a8 f03f
000004f0: 590d 4c6d 2f73 c3bf f41c 0311 c861 e4bf
00000500: 6ccd 0bb2 2fda adbf 3a45 680d 3217 d1bf
00000510: b6ca 41c0 3d70 eb3f 764c 68cc 2203 e53f
00000520: 0ca8 6192 2e6c 00c0 b7c5 160a e3b5 e03f
00000530: 08f9 b6c9 d3f7 b03f 425e 1863 8609 c3bf
00000540: e4d8 4c1c 18d6 c43f d01b 41ad 8f2a e33f
00000550: 146a 36b8 8c1f c63f 9f61 398c 065c d83f
00000560: 5a23 1489 ff4f ed3f 42cd 124a cd42 e1bf
00000570: 0ea8 1503 3617 f5bf 99b7 0d3d 58d3 f5bf
00000580: bcc3 7751 a2a5 fc3f 308d 6065 b78b ebbf
00000590: e7c3 6a86 5be8 d43f b32b 1744 8371 c0bf
000005a0: c227 cdd9 5e4a f03f f7dd 9e9b 93b9 e9bf
000005b0: 629b d068 795c e23f d3da 8b37 5a7a bbbf
000005c0: e718 e5f3 1282 f4bf ea8e cebb a19a ea3f
000005d0: 0c94 e9a4 7d75 b0bf 19f9 6062 ac2a f63f
000005e0: b801 a184 ecd1 f83f a262 2be3 b63a da3f
000005f0: 2e9f 1efc ffbd f6bf 73fb bf38 ddc9 dfbf
00000600: f770 a616 00ec c03f ed4a db34 e236 e1bf
00000610: bacd fef7 f4c4 e93f 3e67 5552 b25c d73f
00000620: 75a4 d0fb 52ce ff3f 346a 9f7d a7fe f03f
00000630: 7d0b fd53 495c e03f 35bb 0ab4 2a41 e63f
00000640: 21c0 73e5 bf6d f1bf faaa 6035 8576 eb3f
00000650: 34ef a95a 939c 0040 3b1c c1b7 7d3e e9bf
00000660: b64c 306f fefe edbf df72 f473 f25a f13f
00000670: cee1 1aa7 67c5 963f 2091 f375 0821 e53f
00000680: dfb3 1503 cdd1 e23f adfd eea2 e66f dbbf
00000690: 94ab 56b9 fa21 e9bf 97f1 1f77 c128 f03f
000006a0: c054 8c72 1142 f4bf a038 ecb4 5877 0240
000006b0: 45bf e012 9ec5 d8bf 0d37 836d 28d5 e73f
000006c0: 4dda 68de 3087 d3bf 4c41 24a0 3e09 c83f
000006d0: 6792 3c1a 1ecf ebbf df18 fad8 eb48 e23f
000006e0: db5f a4ed 7010 eebf 2132 7c03 fc6a a6bf
000006f0: 7c23 ed0e 5579 a4bf 4b83 e088 b9b9 f63f
00000700: 1864 13f9 3132 e33f 13da ff27 284c eabf
00000710: ca6a 1634 e4a3 efbf 34c3 0a89 a003 f03f
00000720: 29c8 d8a4 cf1f b8bf 675b 0166 6e2e c4bf
00000730: 5490 6ef1 4755 f33f a921 5b1d cf2c 93bf
00000740: 7eff 94c0 99ac f43f fad1 7505 2bc2 da3f
00000750: 759f eee7 e7c9 eb3f 1350 7418 9de1 fc3f
00000760: d11c 64e1 09bb f8bf 4836 091c da3f d53f
00000770: 45d1 f05b 8e89 f8bf 3888 68fd 287d e53f
00000780: 4065 0ad2 c8e4 cd3f 5fd3 35d8 f6c7 d7bf
00000790: 2cc8 bfbc ffd8 f73f f311 1cd8 c914 f43f
000007a0: f7a5 adf8 e8f2 cbbf e9ac 0c19 43a1 e0bf
000007b0: 99ae 8940 3973 fbbf f38d 50fa c90f c7bf
000007c0: 4e6f 2608 729f f23f d862 97b2 4676 eebf
000007d0: fbb4 6533 68b2 f4bf 57ff e863 9380 ca3f
000007e0: 64d4 fa8a 1281 ce3f 1863 805f b7b7 ccbf
000007f0: 4aa5 a42f 463f f0bf 2d0f 3049 e4e1 ee3f
