previous_generated_weights/weights_20250228_172227.npy (npy, 62848 bytes, 1 tensors)

array f8 [784, 10]
00000000: 56bd ad0a c3d2 e33f 5b40 7f3e 7428 f33f
00000010: c134 5665 195b f83f f0c4 987b 7ea4 f2bf
00000020: 778a e929 f577 eebf a5cc 08c8 7caf ff3f
00000030: 9873 5d1e 3cb4 f6bf 993a 17d1 2717 fabf
00000040: 34fa b39a feda e9bf 41a7 28ef ac54 fd3f
00000050: 0d16 a4f7 6654 d43f 99ca 9c24 2cba dc3f
00000060: f6f1 9725 c6d6 ea3f 99db cc30 8ac4 cfbf
00000070: 3ced d12f 38d3 c9bf 8a7e 9576 8e08 f33f
00000080: 0afc 5422 1b47 0240 320f c201 c981 eebf
00000090: 4e18 a45c fd88 cdbf cb88 779a ec74 f4bf
000000a0: 6d84 8313 3915 cd3f e856 bdaa 5bbf f0bf
000000b0: 7d9e 1f17 313b d6bf b85f 086f a6dc e63f
000000c0: a9dc ac32 9269 b6bf 30f1 9996 afb7 c83f
000000d0: c90f 74b6 7694 f23f 60a3 0eaf af6a dabf
000000e0: 965f 37e1 614f f5bf 98ab da14 a5ee dc3f
000000f0: e728 00ea 3e00 0a40 acca 9047 5373 dd3f
00000100: ce74 034b 73d3 f43f 9330 e5a2 4f0b f13f
00000110: 8f44 bd3e abb3 e6bf a6dd 2b3d 3b79 dd3f
00000120: 6e1c 14c3 cea7 d93f 4314 69d9 1958 e23f
00000130: c3bb c982 a042 dcbf b236 fe69 7d90 dbbf
00000140: b433 f6fb e4e8 ccbf 1be2 9907 6352 a83f
00000150: 11ae 3e16 616a eb3f 0660 ce2a 1750 e83f
00000160: 47f4 b38a d936 b0bf 5e8e e25d 4206 ea3f
00000170: f5d7 23cf a310 bdbf db54 7d4c 4909 c7bf
00000180: 2537 e0c4 caf2 d93f 0b63 68f0 83ff ed3f
00000190: 3612 30a4 d9dd f33f bb5c 6de7 906c e4bf
000001a0: 2d65 ad7c ac0b f0bf 0d61 87e9 919b ea3f
000001b0: baaa 68ad a33b d3bf 382f ce64 dc4a eb3f
000001c0: 2532 5ea5 44eb c1bf e873 2930 9b17 91bf
000001d0: 98f7 c63a 3a29 f3bf 3074 59d4 3cf8 c0bf
000001e0: 309f 86b9 d32a debf 9c53 aa12 6f83 df3f
000001f0: 23da 0dc3 80d4 0340 9668 c070 d468 dc3f
00000200: c843 f177 9ac9 fa3f 4fec 361e bbb7 d33f
00000210: 7887 ea68 8b20 e93f 22ee ce04 7c2c e03f
00000220: 1d2e 81c2 d4d0 dd3f 0f25 d2b3 da26 f4bf
00000230: aa98 2465 61af de3f e680 d741 88fc d93f
00000240: d845 70e6 d92f d83f b76a 5a99 06fe 02c0
00000250: b74b 8b2a 30af f43f 6d11 e1fc 37f8 f3bf
00000260: 5b24 9c10 8e45 cd3f 264b 617c bb64 ee3f
00000270: c04e c051 5f1d ecbf ea44 3b78 ac8b dcbf
00000280: 9443 599d 5a0c ffbf 4482 6d11 64df ecbf
00000290: 0dbc c993 2372 d3bf 4594 4d93 12f6 b23f
000002a0: 4b4f b9a0 e34b f83f c565 f5bc d87f debf
000002b0: baeb bb9e d6a2 e23f 09a1 4093 d72b d0bf
000002c0: acfb fc0a 26cb ea3f d78f 4d58 77a0 f5bf
000002d0: 3a70 03a9 c6c8 e03f f3dc a049 900f fdbf
000002e0: ff01 b3b2 62f8 dabf 7e5a 4c54 e6a4 b8bf
000002f0: b322 85fa 97f5 ddbf 8f28 d0bb eb6b f83f
00000300: d2d5 c16e 0d98 f03f 13c0 d1cc 17e1 eb3f
00000310: bddc ca30 4fa3 e93f 5793 bd89 c2a1 d33f
00000320: 79ad 64ee fbdc e63f b3fd 83ca daf9 dd3f
00000330: 143d fd1d 14e2 e23f d04e 00a8 15f4 f73f
00000340: 36e1 673a cd08 04c0 68d6 5cb3 65c9 c23f
00000350: 3cf3 f116 bba9 d73f 6740 1c20 6aeb cebf
00000360: 7cfe daad f41f d43f 66de 8a3c ba26 efbf
00000370: c9a8 cef1 a4ed c03f 2dd9 bb4d 5d68 08c0
00000380: c79e 0258 4ab0 ecbf fef2 19c9 4f3d 10c0
00000390: df45 4c6d 6dd8 0040 05d4 d3d1 0477 d13f
000003a0: 9e02 e816 47eb 0440 f104 de75 5955 9d3f
000003b0: 5934 0f73 c3d9 e6bf ecc0 e133 ea5d c6bf
000003c0: c9da 7311 2731 cc3f 5a28 ae74 b9d5 d83f
000003d0: 3fa1 e82d d3d6 d4bf 5f95 c46a cdd4 d4bf
000003e0: 1154 c92a eb17 c33f fa2d a711 6301 f73f
000003f0: db8c 948a bb19 e6bf 75d2 5b02 b6ed fb3f
00000400: cd40 69f1 082f c03f 4c9a f1f6 1045 e43f
00000410: 77db c61f 57e4 f73f 48a2 8608 196b f1bf
00000420: c6b2 98ee 552e 0040 4b9f 33a4 6057 f2bf
00000430: b66c 1acc f48d e4bf d3fa d8d5 3751 f73f
00000440: 2038 06f1 fa71 c3bf fd6e 9843 9e01 01c0
00000450: a47b 7d83 70f9 d43f 33ad 13f1 6a8b ce3f
00000460: f456 ee7d d454 0040 5061 7eb8 269c 0140
00000470: b675 a4cb 11c9 ef3f a321 bee5 e3ce f13f
00000480: 04c3 8a56 ba5d cf3f f4c5 7a08 c23d f5bf
00000490: a661 ac8d 63fa 07c0 6dbb 8a8b b5c7 ff3f
000004a0: 4e3b a658 817e ecbf 0ac5 0756 17aa e1bf
000004b0: 13cb d128 0ac2 d4bf 4894 bbde c1f7 d93f
000004c0: 7687 8137 1504 e73f 3f8b 0375 7d01 f3bf
000004d0: a2dd 88fd 9ced de3f e6b5 7356 22f0 f73f
000004e0: 32ae 2852 8ad9 fcbf acf5 990b d432 d33f
000004f0: eee8 dc48 318b e9bf 10d5 b58f f4f5 e93f
00000500: 418c e0df 32d0 e63f 374c 0fe8 eaae f3bf
00000510: 7c49 b372 22b4 f1bf 63c7 f6a9 6593 e83f
00000520: 5eed 3b48 92a6 e1bf 3b4d e1ab fc13 f13f
00000530: 2259 b8b5 f3d9 d93f 647f 5b70 2b7c ed3f
00000540: 2d01 d7fa 404c d5bf abd3 5145 b709 e3bf
00000550: 6dc6 8bc3 342a d2bf 024c 2a4e b211 ed3f
00000560: e3db 9f25 9244 de3f dd5b a8cf 3023 cabf
00000570: 32ea 17f2 84b3 0240 f177 d0ee 5f39 00c0
00000580: b267 5ac8 f0f3 e0bf f518 9ffa 64d9 ecbf
00000590: 58b6 8084 da52 d9bf 81ee 5123 3c4c f73f
000005a0: 3161 55dd 0bb5 f63f 52cc 83fc 67a5 d43f
000005b0: caf1 fc38 7f33 f13f 010c 88d5 60e9 fabf
000005c0: e223 eb77 9631 b8bf 82f2 3b03 a7f2 bbbf
000005d0: 2853 8263 9ff9 ef3f 14fe 85fa 8002 ef3f
000005e0: e115 1403 708c cb3f 49ed b494 3618 f7bf
000005f0: fad6 0463 1bf2 e53f fcff def8 25f5 de3f
00000600: 216e 63b5 6546 c3bf 8fef ec46 5d9c e13f
00000610: f0c7 0258 ff7a f93f 3cb7 d2cd 003d f33f
00000620: d0b2 eeb3 128e e53f bcca b3a2 ea9d d33f
00000630: 322a abe8 2a32 ee3f c6c7 f47e 02d9 ea3f
00000640: d102 ea0e f48a f53f cc64 e842 7b3c e03f
00000650: c89f 31b4 4c76 dbbf 2625 b907 8b1a ee3f
00000660: 8dea 66b2 c29e 03c0 3189 0c29 ccbb a5bf
00000670: 23eb 82d5 f3cf 84bf a159 d908 7949 e33f
00000680: 3166 f781 f0ae eabf 90a5 d99c 0878 d1bf
00000690: 91f8 a604 16f9 c9bf 7080 498f 77b1 e53f
000006a0: 921c 4c74 2164 c7bf 1859 3144 dbb1 e83f
000006b0: 68ee 1349 db69 f8bf 1d65 3477 e18d de3f
000006c0: 2c62 f9dc 5218 f93f bc3b e09c f35e e3bf
000006d0: eb8d 26c9 2cd2 da3f 8027 38d4 2584 eb3f
000006e0: 1b3c 8560 4186 01c0 61ee c938 878e bb3f
000006f0: 7208 0fc0 9b7a da3f 75df 5b0f de7c f2bf
00000700: 1570 e85e d50b fbbf 0347 cc16 94d7 f23f
00000710: 21fd 1a6e 4d65 e5bf d302 123e b9b6 b73f
00000720: a3f9 6ce7 59bf c3bf b2af 7b34 d6fa e63f
00000730: b57f 9d0e e8a7 cabf b6ab a17e a723 a6bf
00000740: 3653 d954 44d3 e4bf b9c4 6564 25af d93f
00000750: fa9b 2bb5 b1e0 fbbf b5eb eaa6 2250 c4bf
00000760: 6840 21f8 b530 fd3f fb58 79f2 28dd babf
00000770: d99f eaf3 369a d5bf 96bc 7788 39ac eabf
00000780: 5da5 c205 a8dd e9bf 4456 c974 349b bbbf
00000790: 729d 3d51 e2a0 babf c92c 52a8 e119 e5bf
000007a0: 2c78 386e 91a1 f2bf 044f ab46 886a e23f
000007b0: 9231 65c0 072f d93f fff0 ab32 8642 f9bf
000007c0: f0c8 6610 bb87 fdbf 2ce9 a00b 1c65 b73f
000007d0: e133 b3c3 b931 ecbf 4041 bc5c 8063 dfbf
000007e0: 8a3a 9352 4591 e13f d2c3 11b2 0220 eebf
000007f0: ff2f 7c75 7031 e33f 66eb a3a8 f227 0440
0.619477768761423 1.197376484040453 1.5222410162416937 -1.1651596858976596 -0.9521432703589444 1.980343610176342 -1.4190026460775922 -1.6306532065970372
-0.8079827329200442 1.833172735418387 0.3176515024536862 0.44886306357799693 0.8387175306557413 -0.24818541891883397 -0.20175840697252478 1.1895889885126132
2.2847197229562015 -0.9533429178559116 -0.23074309371458174 -1.2785459550728315 0.2272101731569224 -1.0467182797923957 -0.3473627782645748 0.7144348305328014
-0.08754838692844892 0.1931056485517586 1.1612460257610897 -0.41276161284854673 -1.3318804547797973 0.4520657256750211 3.250119999055744 0.4601638983614673
1.3016236238684544 1.0652614939781742 -0.7094322419526565 0.46052437757267695 0.40086716700211056 0.5732545133875039 -0.44156658909099294 -0.4306939635360819
-0.22585737517183946 0.04750356166636412 0.8567357477635956 0.7597766719873114 -0.06333694111158748 0.813264068001853 -0.11353515441064117 -0.17997089609949665
0.40544385172039404 0.937440843149575 1.2416626370987962 -0.6382526893675257 -1.0028500433166514 0.8314904748067719 -0.30051509794672493 0.8528882950645089
-0.13999231409651816 -0.01669161302048741 -1.1975652976975422 -0.13257561081528157 -0.4713639556671181 0.4923970873144812 2.4787612188913655 0.4438983059968761
1.6742195782901366 0.30808904600752823 0.7852227257865101 0.5054302305138132 0.4658710383853036 -1.2594859146359487 0.4794543731426396 0.40603834562172236
0.37792060378805337 -2.374036024162105 1.2927705442314001 -1.248100269135729 0.22868514834434248 0.9497964314744862 -0.8785854908660085 -0.4460250066886845
-1.9405161043580152 -0.9022693958650696 -0.3038414901010931 0.07406726928964343 1.5185276296878836 -0.476553139238231 0.5823777294420929 -0.2526759088527944
0.8372984137166575 -1.3516763161978724 0.524508791069372 -1.8162997127636202 -0.4214102501973968 -0.0962661701017655 -0.4681148478016823 1.5263478599977451
1.03712218536872 0.8712271690728833 0.8011852219559824 0.30674804164146025 0.7144755989187807 0.4683749177638347 0.5900974832274266 1.4970909655138946
-2.5042976916266992 0.14677115686361053 0.3697345470498481 -0.2415592819966179 0.314450425892552 -0.9734774763555378 0.13225232893939268 -3.050959212584664
-0.8965198248815448 -4.059874670227826 2.105677465334096 0.272889332685111 2.614881686168089 0.02864589483170205 -0.714082455373169 -0.17474105389874894
0.2202500186173977 0.3880447043853842 -0.3256118725135088 -0.32548842836907527 0.1491674384039077 1.4378386201450426 -0.6906411844869597 1.745534905637354
0.12643539226201597 0.6334309409256291 1.493247150543281 -1.0886469204944138 2.0226248398160775 -1.1463323988081864 -0.6423286425009767 1.4573286393567073
-0.15191590088619567 -2.1257901459592845 0.32772457924687104 0.23862969180422908 2.041420921169328 2.2012457288330225 0.9932946183577573 1.1130103086780785
0.24504784799275836 -1.3275776225312912 -2.997260195563473 1.9862571192604392 -0.8904425364906758 -0.5520130806236534 -0.32434324251441743 0.4057469058155374
0.719248398218254 -1.1878637858250867 0.48325276145211593 1.4961264969855335 -1.803110428746447 0.2999773133559198 -0.7982412741760336 0.8112738425103618
0.7129148838615792 -1.2302044930299993 -1.1064781647188218 0.7679928130730612 -0.5515834246465763 1.0673796381059464 0.40392773386101244 0.9214074320297923
-0.3327791642768883 -0.594936023130335 -0.2838260564450142 0.9084102179207323 0.4729352347780475 -0.20419893397840286 2.3376559175060487 -2.0280150086755317
-0.529777900042282 -0.9015374083471942 -0.39568198146557654 1.4561120395364073 1.419200768074074 0.32259559306766505 1.075072500810267 -1.6819771138259514
-0.09450664928148414 -0.10917133168181617 0.999221510270762 0.969055642417461 0.2152233138114488 -1.443411427388883 0.6858040746653551 0.4837126665479443
-0.1505858550725501 0.550337446714808 1.5925286710666988 1.202393344875829 0.6735929025940894 0.3065134610070961 0.9436239761647072 0.8389904479611168
1.3464241583425756 0.5073829943459258 -0.42909543606810674 0.9407401228756143 -2.452519792333368 -0.042448406229839704 -0.010162262872076838 0.602718846591234
-0.833854917374259 -0.27295127217674864 -0.20291400172385868 0.6779134558273778 -0.1827432458742107 0.7717109996690708 -1.525843892536523 0.47740971222954603
1.5684383994868183 -0.6053407730085989 0.41907806056607794 0.8598813195142014 -2.1905543842945128 0.10764355789609105 0.41373342281088477 -1.155485210414523
-1.690389033064098 1.177631463102842 -0.6686160231110173 0.09263189092053929 -0.15427707481462702 0.7181197190343396 -0.20824909890779755 -0.04324077053828239
-0.6507894189076981 0.4013150673336657 -1.7423569752661465 -0.15869553709293674 1.8243922894071378 -0.10493713302398426 -0.33753751583071573 -0.8335235276589568
-0.8083076584345396 -0.1078369889376854 -0.10401739581503991 -0.6594093596953822 -1.16444533400455 0.5755044346101106 0.39349550045587833 -1.57874126237499
-1.84563738257253 0.09138655933285084 -0.8810700247064426 -0.49044808441341914 0.5489832508845478 -0.9414075353544098 0.5997850699072841 2.519505803587367
