previous_generated_weights/weights_20250228_172010.npy (npy, 62848 bytes, 1 tensors)

array f8 [784, 10]
00000000: 10ab 7b2d 6eb7 ea3f 91de aeca 286a efbf
00000010: fc65 0897 f855 e23f 9fcf 3317 66aa e73f
00000020: 4d31 4837 31d7 eebf 9663 c2fc 1192 f4bf
00000030: 9140 bd4e 4989 f03f e8ae 9184 fccd dd3f
00000040: 293e 598f 592d d33f 3e97 ed57 0f77 dbbf
00000050: 7fbd 6406 8c34 dcbf ad72 2e7e 35de fa3f
00000060: ab31 648e e9b6 a3bf 483f fcac 00a9 cc3f
00000070: 310a 57e2 b6b1 f1bf dbbf 5e85 1ea9 f23f
00000080: 8024 130b 79e6 acbf 106f 003b 2e2d d2bf
00000090: 69cc 61fa ba2b e63f 686f f2a0 992e e9bf
000000a0: 2ea3 e6ca 4118 c8bf 9b11 0175 393c ee3f
000000b0: 48b5 9729 7658 c13f 1d51 b243 a407 b2bf
000000c0: d851 9523 e404 f5bf 81ac eb56 e898 de3f
000000d0: 0914 0972 fc3f f5bf d1c5 131f 6fea e73f
000000e0: a69b b9da cf1c eebf 6e4a 5b3f d2d1 e03f
000000f0: 307b fa3c 423a dc3f b08e e01a 5b70 e03f
00000100: bef3 fc49 d164 c43f 85b9 ba21 df13 d9bf
00000110: 375d 2b71 e596 d4bf 2e76 3aaf b4bc 0240
00000120: aaa1 c0a5 28e7 d83f 0b4c ef5f 113c c53f
00000130: 821f 4522 f0d5 e3bf 7aec 236c e5bc be3f
00000140: 899a da04 2691 c43f d866 810c f577 a2bf
00000150: d491 1aae b977 e53f 4b36 a9f7 9ec0 c63f
00000160: 952e b9ce dc94 c1bf 77d0 f475 d7d7 e5bf
00000170: beff 6b3f 1271 edbf b407 06e3 e752 0340
00000180: c599 99fd 8b22 e5bf 5c15 0eda 9d1b 93bf
00000190: 9d61 8f1c 7efc e5bf ffb1 98a4 bb0f febf
000001a0: a533 0212 b619 eebf 02bb 0919 ca35 f2bf
000001b0: 03ff a72e 02c5 ddbf 4376 a60d 3ef8 fbbf
000001c0: d825 dfd5 b6c0 d03f 7a8e 7ac3 a636 f83f
000001d0: e6c8 bdb1 fead c2bf cf23 40ae d155 f13f
000001e0: 6019 e77f 3db5 debf 21a4 32a7 11fd f9bf
000001f0: 6582 07cf b07b e0bf 28fd ae7d e68e ed3f
00000200: f04d f019 75b6 b43f 1e50 9fc3 b661 ef3f
00000210: c110 3ba5 7734 d9bf 28a4 71ee 7ddf f83f
00000220: 1219 36cc ad03 c3bf ee84 897c dcb6 f2bf
00000230: 1ca1 a7b4 bd57 f73f b9f5 f3cf 2ad1 ce3f
00000240: dc19 37e7 c1ae fa3f 1426 d518 eb1a c2bf
00000250: c06a c5b7 9669 f53f 97ab 5931 36e7 dfbf
00000260: 5b72 fb72 359e f53f 53c0 c3e8 71e7 ccbf
00000270: 6e63 89fb f306 e93f 4115 340d 2fda e63f
00000280: 15ee 26c8 c1f5 06c0 aab6 321e e09d ed3f
00000290: cbf5 28bb e738 03c0 f589 a959 1a1b d73f
000002a0: 7e24 2d3a 2634 f33f 521d 2a5d 4c34 e73f
000002b0: 636c 8129 1cc2 e23f 1283 789b 73c8 d3bf
000002c0: eecd eba7 bf8e f8bf f4bd 7a4c f4fb cc3f
000002d0: 95e7 630c a83a f2bf 61e8 c8bc 8e6c e13f
000002e0: c1bd f0ed e83e f1bf a57d e1d0 b8af f5bf
000002f0: 498c 0f0d 6170 ee3f 2a79 2c92 b348 e93f
00000300: 50ac 543e d44a ee3f 48a4 4e45 1b2f e7bf
00000310: b5e6 9542 081f e63f e3bf 386e 0f7d fe3f
00000320: cfbe e7f5 29e9 d13f d4f9 6d84 9a9a efbf
00000330: d8c0 0f15 96d2 e03f 8838 a94e eae8 0140
00000340: a3f7 61a8 c2e2 ff3f e1b8 26ba 43e3 f2bf
00000350: cd7c a22a 1611 ecbf 9ca6 5adc 1bd5 8dbf
00000360: 653a a93e c8d2 d1bf 9460 2a17 26d1 dfbf
00000370: ddfd 8ee3 c495 d23f 906a 0378 e279 f2bf
00000380: d07e ddc7 4963 e53f 543e d360 be92 0240
00000390: fa83 a5a6 7474 f5bf eaa0 5218 b3d8 e83f
000003a0: 87f6 db54 ff77 0040 e36b 1515 be13 e0bf
000003b0: baa7 a60f 57c9 02c0 76e9 4d4c f858 efbf
000003c0: b7d2 b59a 4dc4 d5bf 5e98 1007 bd16 e3bf
000003d0: 2dc3 4ea4 bd92 f2bf 5fb3 719c 5d73 ecbf
000003e0: 658a a5c1 fe60 f43f de66 5334 f95b fabf
000003f0: acb2 7a8d 5151 f8bf 4863 6e5a d8d2 aebf
00000400: 1708 eb03 9674 f2bf 7451 231f 9de5 e93f
00000410: 4d14 efff 960a c5bf f903 1db7 f0f1 e73f
00000420: 8973 a7ea 7830 d23f bec4 056e 801a d6bf
00000430: d4c5 56cf 3301 a33f 0c1e 0651 2cf8 d23f
00000440: 86f2 31bc 0e41 ecbf db63 e541 7a92 f23f
00000450: a018 1a0c fb72 e53f d287 3479 5e9a f63f
00000460: 95f2 eee2 4ebc e93f 557a f45c a5be f43f
00000470: 3300 3c73 37e4 f3bf a601 7a7d 3834 c83f
00000480: d57b 051b 8bb1 be3f 65f0 b646 d3e9 d4bf
00000490: 8d1f da8f 6e36 c43f b853 c739 8b66 e2bf
000004a0: 5c82 455b 8094 b7bf 3ce9 0153 5d90 d4bf
000004b0: eea6 5ed4 ea73 febf 3747 c30e c6f8 f33f
000004c0: dc00 e07a bbfa e3bf 0763 86df 0530 d7bf
000004d0: 3e5c c5a8 ea9f d3bf 188d f911 5c50 e73f
000004e0: fc33 e39e 55b3 e2bf aab3 2827 9c51 cf3f
000004f0: de77 15b4 d407 cdbf 5e10 8d4a 75f3 d73f
00000500: 46e3 8572 c60d d1bf a219 2589 ea12 e3bf
00000510: 3369 d82e 0af7 e33f 7bc5 0f20 5a5b f03f
00000520: e76a f0dc 27b2 a4bf 6c14 d625 221f d5bf
00000530: b48f 64ff b2aa f23f 695d bda9 cd14 f23f
00000540: d621 9c92 83bd e73f 83dd 8595 6cf3 d9bf
00000550: 43a1 7737 a51b bd3f 3308 5aa0 3a25 ec3f
00000560: d663 b0b6 8553 f63f 0c02 c78d 2e78 e13f
00000570: 68f7 7d65 d722 f1bf 43bf 652a eabe f2bf
00000580: 4ef2 a61f 96f4 ef3f 5a31 a183 5648 c2bf
00000590: 05b7 f22e fc6f d23f a2d7 b669 4a1f ca3f
000005a0: 93a3 8666 7b96 ddbf df42 0afc d588 da3f
000005b0: 2559 400a 50a5 7fbf aed3 66f1 8c36 f53f
000005c0: f709 143b 9c21 f1bf bb9c 6000 111b f53f
000005d0: 7805 2879 ac70 eebf 7a14 2159 0616 da3f
000005e0: b189 0266 eaf9 e4bf a2d3 de46 5eec f13f
000005f0: ea33 7c47 6790 bfbf 4f8c 3780 a790 ca3f
00000600: 5553 d990 3808 843f 5bf5 1ec0 4072 e83f
00000610: 34ef c566 d33a f1bf f884 afe0 1055 d13f
00000620: bada e55a 3e5f ecbf 3d59 d66e bfe2 dc3f
00000630: 91e1 10d8 86f3 e73f bdc2 08f0 d58e c63f
00000640: cb38 042e ad30 f13f 89ee 8bf3 c411 c3bf
00000650: ece5 7012 ef42 fd3f b459 fbbe 1375 b33f
00000660: bdb1 fe32 ccb2 d8bf 946f c4de 2b41 03c0
00000670: c1c6 fb6c d26f f0bf 90ab 5922 e553 f73f
00000680: a4af fbf5 f81d 01c0 af26 9fad a49a d13f
00000690: 9c9b f44a c30a e4bf cfc4 b84f 748d d2bf
000006a0: 2c4f e518 9a85 e6bf 29ba 9862 028a f43f
000006b0: 5223 c80f c652 e0bf d851 4531 7248 d83f
000006c0: 4cf6 3a97 b8be ed3f 3733 a7e2 b910 ffbf
000006d0: e828 aa15 f8ea f8bf ef9a 8524 3336 f13f
000006e0: 4dea 5e15 3649 f43f d433 5b98 3a75 e93f
000006f0: 27c1 575e c7ba fd3f c947 add2 c0aa e0bf
00000700: d239 7316 d9a8 ce3f ac51 158c 5ce0 eabf
00000710: dfd8 57fd cb55 ca3f 0e6d f86e 499f ad3f
00000720: 7fa9 ed82 f982 ea3f c444 e39a d4fa b7bf
00000730: 2a09 3ceb d1bd e43f 7473 1b2c b1e9 d23f
00000740: 59b6 5c49 fb2c f23f 5963 58e9 9771 edbf
00000750: cbd2 c67f 149a d73f f665 85f7 a887 f03f
00000760: 235f b6a0 d303 eebf d1b9 3a37 5286 e6bf
00000770: 8e7c 772f 7de5 f3bf 06bc fed2 450c f43f
00000780: 6ea0 b424 0e41 fcbf f964 ad42 a0c0 f73f
00000790: bd20 ba1d 4cd3 e13f d660 6688 408f c43f
000007a0: d28c 57e0 d375 be3f 7a9d e350 9375 fe3f
000007b0: 2dab 229a 6098 e13f 8807 307b 94c1 eebf
000007c0: 52a7 40d3 ffa8 dbbf 472a c102 adc5 d63f
000007d0: 843e bc10 cd4a bd3f 2dad 6de0 ef1e e3bf
000007e0: 0c95 c88d 646d e7bf fb5a d3ab 8d20 f83f
000007f0: d56c 3633 a6b0 f13f 7e1f 807d d5d8 ecbf
0.8348914039937387 -0.9817089041379906 0.5729945134982581 0.7395506337329499 -0.9637685851790053 -1.2856616853152665 1.033517177176723 0.46569741197775594
0.29964293478858167 -0.4291418417618508 -0.44070721268050045 1.6792502335512538 -0.038504885322342496 0.2239075512557014 -1.1058873025327893 1.1662888726968876
-0.05644586811246999 -0.28400760423549887 0.6928381815217907 -0.786938490247377 -0.18824026496192786 0.9448516164052764 0.13551213293923525 -0.07042910244701202
-1.3136941328021887 0.4780827378114694 -1.3281216101179345 0.7473674399354256 -0.9410170814488665 0.5256129491265946 0.4410558314793205 0.5137153172440403
0.1593267070074073 -0.39183786672483506 -0.32170997668932294 2.3421415033069684 0.3891088122059282 0.16589562591852344 -0.6198654813133404 0.12006982698578553
0.1606795810414108 -0.03607145097403269 0.6708649063553431 0.17775332539388197 -0.13735542386927038 -0.6825978568872547 -0.9200526465137882 2.415481351491474
-0.6604671433568049 -0.01866003650095159 -0.687071853429234 -1.878841059641786 -0.9406385757189254 -1.138132188610769 -0.46514944607041303 -1.7481060536587314
0.26176234136491194 1.5133426319015642 -0.14593490294243522 1.083451920190999 -0.4798120259332759 -1.6242844134487842 -0.5150989573995274 0.9236938910252421
0.08090907939213543 0.9806779690502514 -0.39382735381901673 1.5545634569373394 -0.14854977103477346 -1.169643866036775 1.4589211518123824 0.240758277453933
1.6676653892369506 -0.14144648277788063 1.338278501373381 -0.4984870416580462 1.3511251918308946 -0.22581313958608237 0.782098761828008 0.7141337640647764
-2.8699985157852645 0.9255219068342815 -2.402785741984848 0.3610292316062947 1.2002317688477713 0.7251340694064459 0.5861950693755599 -0.3091095941800158
-1.5348507460993193 0.22643903478954963 -1.1393204196924434 0.544501656265549 -1.077858857588453 -1.3554008635909238 0.9512181525318592 0.790124688621096
0.9466344087026162 -0.7245003083854806 0.6912881184100202 1.9055322938474937 0.2798561955851086 -0.9876225077167029 0.5257063304288989 2.238728155650339
1.9928614213417652 -1.1804845115216767 -0.8770857651433289 -0.014566629087613685 -0.2784901248859682 -0.49714042913684264 0.29039118025317895 -1.1547569931050568
0.6683701423280244 2.321652180143966 -1.3409315595274607 0.7764525866560039 2.058592474901903 -0.5024099742689682 -2.348310587190068 -0.9796105852431498
-0.3401063929407359 -0.5965256822571623 -1.1608253877895536 -0.8890827231931374 1.2736804546663276 -1.647454456708537 -1.519853165296051 -0.060202370680775774
-1.1534633782434918 0.8092790229953111 -0.1643856763531936 0.7482837273056467 0.28420851626815896 -0.345367534107094 0.037118548450404326 0.2963972846268639
-0.8829415965734178 1.1607611249985357 0.6702857242933256 1.4126877531602884 0.8042368347447161 1.2965444212965356 -1.243216943868913 0.18909364821230418
0.11989659700110107 -0.326771563584549 0.15791112922692854 -0.5750175598610587 -0.09210970142658809 -0.3213113127345826 -1.9033001228039512 1.2482357575103842
-0.6243569755461311 -0.36230608776672607 -0.30663553697144497 0.7285595274992458 -0.5843914130470007 0.2446780387121213 -0.22680147927434197 0.374234507373563
-0.26646577056776655 -0.5960591009723439 0.6239062228153557 1.0223027470022703 -0.04042172023783568 -0.3300252313131924 1.1666746116907065 1.1300789480645455
0.7418840278124275 -0.40548243142935564 0.11370308498556363 0.8795445567959689 1.3953911911287284 0.5459206360902171 -1.0710061993154003 -1.171610036482847
0.9986067407804258 -0.14283257891873796 0.28808502754951376 0.20407991563632516 -0.4623096944074458 0.4146017991379675 -0.007726013809607833 1.3258180074455868
-1.0707056339020917 1.3191080107442719 -0.9512541166624677 0.40759428695702804 -0.6555072777157901 1.1202070968986182 -0.12329717154734934 0.20753949890704113
0.009781305237234564 0.7639468910562458 -1.0768617643906966 0.27081701223330823 -0.8866264129017829 0.4513395864863872 0.7484773845708778 0.17623399944706888
1.074383907081528 -0.1489797772591042 1.8288412781097305 0.07600520527498739 -0.3859129426953379 -2.406821956987139 -1.0273002869766261 1.4579821912581998
-2.139635011428213 0.2750636764072664 -0.626313825986347 -0.2898836878330941 -0.7038088308567914 1.2836936808995552 -0.5101042087781968 0.37942175685500734
0.9295313791005326 -1.9415835240972237 -1.5573654981877159 1.0757323671947991 1.2678738436503807 0.7955601669033237 1.858100288893249 -0.5208438982756373
0.23952783199497546 -0.8398878799439919 0.20574331159850254 0.057855887218659516 0.8284881169504813 -0.09367111951293611 0.6481713861869924 0.2955134325728104
1.1359818330487512 -0.9201163823628163 0.36877930143536436 1.0331201237480605 -0.937967122928033 -0.7038966253947426 -1.2435275892419528 1.252996277045669
-1.7658826288043445 1.4845278362830057 0.5570431309324914 0.1606217065825663 0.11898540713405062 1.9037049445849719 0.5498507509667881 -0.9611303716667274
-0.43218989973194255 0.3558151747608104 0.11442262323930136 -0.5975264914863253 -0.732103611870714 1.50794760817888 1.1056272507183185 -0.9014689875775586
