previous_generated_weights/weights_20250228_165638.npy (npy, 62848 bytes, 1 tensors)

array f8 [784, 10]
00000000: 9117 90ae 81ab c03f ed7d 4bd8 f3b0 e9bf
00000010: 2416 7db1 9106 0440 09e1 a27e 4d29 c7bf
00000020: ece6 5011 2af2 d4bf 2213 c808 9436 f0bf
00000030: febd 20c4 7867 e03f 500c 40b6 62e5 f5bf
00000040: 1454 65d4 8639 f7bf edd5 fc2a 9843 edbf
00000050: af0f f274 0260 e23f 7b49 9315 905b cf3f
00000060: 4075 34ef 5ff5 f4bf 9569 c8cf f962 cc3f
00000070: 6c41 9714 c0ed f33f e5bd 09a9 9a30 06c0
00000080: 38ad bd3a 9d08 c5bf 4646 8a12 9879 fc3f
00000090: 42e9 cd11 2d8d 79bf e313 4916 2ed3 7abf
000000a0: a0a6 d115 0a1e 01c0 c995 cb9a 8da7 00c0
000000b0: 81dc 4030 27a8 e7bf 617d 7f67 0a9b 00c0
000000c0: c8c8 0c70 32de c8bf 18e8 a101 8b78 e0bf
000000d0: 3388 2c03 40bc df3f 3eab 0ffb c931 e53f
000000e0: 72c4 00f7 6663 cf3f 7566 1093 2aba ef3f
000000f0: 4d6e 966a 40b3 ddbf 21c6 b1e9 2cf8 04c0
00000100: 9f5e b3ee 038e eabf bf2d b2c4 ef66 e8bf
00000110: 31c3 dac4 7b27 d5bf 214a ecff 8af3 fabf
00000120: abde a145 3ed3 f2bf 760d d9de 4d0e b2bf
00000130: 45c7 0d2f 0a35 f63f 4896 e9b6 d8dd a23f
00000140: 47fb 1b6b d6da e1bf 2b5b 42e4 2267 e9bf
00000150: c797 ee21 06fc e93f 6c49 ebc6 c3d0 b73f
00000160: 4011 cb69 9702 e4bf 89f1 58f9 ac20 f33f
00000170: aa72 7c5a b643 f4bf 0cb5 c049 a86b e73f
00000180: bf61 3eab 5cbb f3bf 7914 3151 fc7c f93f
00000190: 5533 b1b6 6906 c53f 04cd f04f 886a d43f
000001a0: 1f49 a9cf 932f f13f e5b6 3997 70f3 eabf
000001b0: 4b80 8321 1a98 f73f a3c5 a327 57b7 de3f
000001c0: 8fe0 d82b 884c edbf 2be9 ffa4 647a e1bf
000001d0: c16c 8503 9028 f33f b9a4 0b33 6ad7 e3bf
000001e0: bd66 4f4c 15a4 ec3f e3ee abe2 9791 d5bf
000001f0: 535a 93f8 8161 e53f cf9f bc17 302d f93f
00000200: 5ae9 2a1a 8186 db3f fe77 364d 7d77 f7bf
00000210: 39ea d012 fab4 c03f 6f6e 49ab faff e1bf
00000220: 5ab8 81f5 6b23 e63f b7ea 93b4 d952 d8bf
00000230: 7669 a9fd ad15 f93f 074c aa14 5d0e cd3f
00000240: b59f 3094 de26 e5bf 93a2 e526 2fd7 d03f
00000250: b78b 425d 5c0b 01c0 b0ec 3382 17c4 0140
00000260: b580 c5c4 5c5c c93f cb10 6985 970b dabf
00000270: e055 84f9 d266 f03f cff0 042b 8977 f3bf
00000280: 8c7a 1eba 8f87 9cbf 7b01 df75 b076 c13f
00000290: 225b 161b 11dc dbbf f224 ba67 1a4a e43f
000002a0: 3712 a185 5f37 cebf bbfa aca7 be76 e7bf
000002b0: 4ca4 f86e 8ee7 c33f cfaa a7d4 2bce f43f
000002c0: 133f 83b6 fafe e63f ddfb c137 812a 0640
000002d0: 777c 8152 ca4b dd3f 9cb7 f8e4 1dfe f5bf
000002e0: f386 f992 fa05 f2bf ff47 1f56 33e0 0140
000002f0: 20a5 7401 3c9c eebf 84c5 dfe1 c239 0140
00000300: a0a1 9570 51df d23f 3eb6 4d91 bfca 0240
00000310: c48a d5f3 f9dc d93f 4fef 2d8d 2210 f9bf
00000320: 9d24 acd5 de22 ebbf 1e55 6f64 fe29 edbf
00000330: 4f98 2a10 713d d3bf d789 ebdc 1e75 e7bf
00000340: 8d56 b2c8 6213 ebbf 0ebf 71d3 12e2 e3bf
00000350: b676 d790 0480 fd3f c325 faaa 6db4 f2bf
00000360: 2c1c 6eb6 e7ab fd3f 2131 3980 e1a7 f83f
00000370: 7ee1 15d3 3a0f f4bf a9e8 b076 a054 e5bf
00000380: 6f8f b169 08b9 dabf d387 efa7 fe0d ebbf
00000390: cee2 c55d ced5 f6bf 9104 6c4a 5684 9cbf
000003a0: 85be 2fd5 cfd9 fbbf a1d6 a182 3009 dabf
000003b0: 54eb e4dd 6751 a13f 4922 9ce4 81f5 e3bf
000003c0: c6a3 308e 39eb f2bf 43a9 babf bd75 dc3f
000003d0: 2fb4 69b8 8bc8 fe3f ad4e 570d 3e7f 01c0
000003e0: 1ae4 e84f d814 fa3f d616 78dd 5f02 613f
000003f0: b65c a47d 57f5 f5bf b828 b803 c1e9 c03f
00000400: 0770 5808 b9c9 fb3f 27c3 b9f5 840f e53f
00000410: e87f 79b5 01a4 f9bf a462 6efe e58c f3bf
00000420: 9aa3 bc3d f3e6 eb3f e17f 5bfd 53c3 633f
00000430: 84d8 9e36 41cb d7bf 7b81 5c13 04c7 e4bf
00000440: 34ee d8a2 9a42 cf3f a6e1 bcc2 fe43 d5bf
00000450: ee85 69a7 7f72 c4bf 144c 7456 ea42 dcbf
00000460: 3e41 1dcf 5cfb e8bf 632c a911 2630 e63f
00000470: 038b bad1 cc78 f1bf 567e 27bb c09a f7bf
00000480: 3836 869f 73bc d9bf fb43 e205 f03d e0bf
00000490: 98c2 c245 d80d fe3f dd42 ad46 1677 b2bf
000004a0: 4ccc 2526 96ef 4e3f 506b 1b64 668a 9dbf
000004b0: 3f8e 37d7 f6c6 f93f a9de 3cde dfe5 d3bf
000004c0: 60ba 406f 42bc f43f 3e6b 791c 0dd8 ee3f
000004d0: f82b 3f8c cccd ecbf c89a db91 3b87 e9bf
000004e0: 6fac fcbd 4469 ed3f 55a0 9d08 6691 d8bf
000004f0: cde2 682e d157 eabf fa7b 1b51 b38e d03f
00000500: 959f 708e ee5b c1bf 4d29 4ce9 41c3 ddbf
00000510: 291b e2c8 0fb5 d13f c2ac d438 de03 eabf
00000520: 67c6 e818 404f f83f e73c afbd 4d56 ccbf
00000530: 3bbe a619 ee6d dabf ca8a ea3b 18b2 f8bf
00000540: 8828 42b4 831d c4bf e199 ae26 14ad cd3f
00000550: f28f adae d152 e13f 03f3 6dc3 2e71 e33f
00000560: 6909 5b69 ff17 fc3f 0228 5f66 5365 e13f
00000570: 2cfd a82a d828 d6bf be1b 00af b15f f83f
00000580: 34f6 8ee0 b5db f3bf dfcc bab2 1a3f 0140
00000590: 2d20 a514 6553 0140 a9e6 8e9f d47f e23f
000005a0: 2091 33af 0b75 f33f 73d4 ac53 fe67 ea3f
000005b0: 3335 e4d4 7447 ca3f 4011 78ad 8742 d33f
000005c0: 1a53 7b2f bee6 d23f 2769 bc03 34a9 ff3f
000005d0: 2112 e1fa 0114 e8bf bdc7 a9d7 b0b0 b43f
000005e0: 8936 2ebd 1910 e93f 9deb 2a6a e1ac e03f
000005f0: df06 1a5b 8476 f63f 7296 35d8 2740 d7bf
00000600: 7fd5 8305 b461 e53f d24b 46e9 c206 e9bf
00000610: 4353 70fb 8caa cf3f 95b3 bba2 e0dc c23f
00000620: 26b3 9859 b1ff d4bf d0a3 9e13 8d15 9ebf
00000630: 0ca4 a23b 2644 dd3f cdcf 153d c1c7 b1bf
00000640: 18c2 0e99 177b d4bf f63d ec2c 7e62 e6bf
00000650: dbef 3410 f123 d7bf 9ca0 1410 dbde eb3f
00000660: d6df 55c2 f92d d7bf 04bd acff 5e4b f5bf
00000670: 4f2e d781 e890 e9bf 1461 52c1 33f1 d1bf
00000680: 9e35 ad6b b2af d3bf 3a16 ca23 f56e f33f
00000690: 8cc9 0982 56e3 d83f 23b4 be58 e816 c33f
000006a0: 5061 15a7 4a2d f53f 1062 0530 1830 c63f
000006b0: d324 d109 e486 f63f f3c5 846c 50b8 eabf
000006c0: 83c9 5618 2cf8 d53f 3068 2f5f 6d55 f3bf
000006d0: a5b1 117b 6779 eabf 4bf5 a8d6 85ac e7bf
000006e0: d7a2 6eb5 68e3 e6bf eb44 73ab 5533 edbf
000006f0: bf7d b312 e56b ed3f 54e2 3186 e299 e5bf
00000700: 0bf7 eaa7 3686 a9bf a96e 7f04 4336 dfbf
00000710: 38e1 79ef ebdd dabf 5eb9 e87d 3cea f13f
00000720: c5d4 7031 c38a fabf 0866 b995 e5ed f03f
00000730: 7a86 9570 464c f5bf 8988 8b94 59c7 e33f
00000740: 372d 7fa8 5cc5 aa3f 1b61 3bcf 34d9 eb3f
00000750: f262 717b 803d e2bf 1275 9978 7b76 e2bf
00000760: e916 44b8 9c7a ebbf 3297 0942 a658 ea3f
00000770: 83d8 ec68 d014 f43f 0542 50b5 0a3f f23f
00000780: 7e6e b616 56c1 e63f 6ba2 ba06 7390 d7bf
00000790: e058 2fc1 c3f3 f5bf d25b 6063 2a33 ca3f
000007a0: 544b 0789 d191 f73f d3bb 8128 a3c5 ec3f
000007b0: daad aa6b 2aa7 b13f e884 6e13 62c6 f3bf
000007c0: f85b 9b87 dc42 ef3f c4c5 4bbc 5bb7 e63f
000007d0: 02e1 08a6 494e f03f 5c23 d9c9 d11d ffbf
000007e0: 7d77 be66 0ff9 dd3f 87cc cd36 cfc2 ed3f
000007f0: 1ce3 1a0a 5096 d13f acc5 6bb0 aaa7 febf
0.13023396514489297 -0.8028506493100714 2.5032075754450194 -0.18094795878801787 -0.32728053751962594 -1.0133247702626211 0.5126308279631642 -1.3685023421428646
-1.4515445992194644 -0.9145012702562646 0.5742199215023812 0.2449817757938709 -1.3099059432928044 0.2217705025257827 1.245544510300614 -2.773732491121097
-0.16432538383683393 1.779686043188478 -0.006238151600763965 -0.006549053218411568 -2.1396676735501643 -2.0818130582217447 -0.7392764990280655 -2.07570343835657
-0.19428091498554623 -0.5147147209056611 0.4958648711200368 0.6623277572192376 0.24522101460164297 0.9914753792138088 -0.4640656510252697 -2.6211794144990255
-0.8298358595011058 -0.7625655023306804 -0.33053487991405733 -1.684458732318156 -1.1765730590831633 -0.07053076449033377 1.3879491651573101 0.03684880478685365
-0.557963570783479 -0.7938398798167773 0.8120146429762308 0.09302924734519075 -0.625316340091139 1.1954774608740044 -1.2665313276876682 0.7318917694553035
-1.2332426728445254 1.5930140658904561 0.16425820751683298 0.31900222593976957 1.0741155730980336 -0.842216773378564 1.4746342953804 0.4799402129275114
-0.9155922752752462 -0.546190569176621 1.19740296721902 -0.6200457570058894 0.8950296869690743 -0.33701130996608536 0.6681527953140382 1.5735321929187085
0.4300844913047023 -1.466672231304528 0.13052297514680491 -0.5624974580236549 0.6918239398053274 -0.38005678782034685 1.5677928837454522 0.22700084218067237
-0.6609948057493883 0.2631338004926331 -2.130547264664951 2.220747964105236 0.19813117607100642 -0.4069575121723232 1.0251035448794639 -1.2166835480157265
-0.02786087583046508 0.1364346099417267 -0.43530681271788485 0.6340457940979418 -0.23606485390532025 -0.7332452082553894 0.1555040399410096 1.300334768947028
0.7186254086209111 2.7707542759012385 0.45775087411124765 -1.3745402282906758 -1.126459669227583 2.2344729164406085 -0.9565715816908416 2.153203739778009
0.29488025660114126 2.3489981986847672 0.4041123276894434 -1.5664392008611292 -0.8480066464700432 -0.911376186525249 -0.3006251008868092 -0.7330469431729466
-0.8461164398056141 -0.6213468675395875 1.8437543542744783 -1.1690498999399643 1.8544690252472362 1.5409865387656014 -1.2537182088400125 -0.6665804212746212
-0.4175435096897137 -0.8454583435052377 -1.427198759365797 -0.02784857587085249 -1.7406767203900995 -0.4068108821587462 0.03382420142812373 -0.6237191643750261
-1.182427936010059 0.44468635295438136 1.9239613727215887 -2.18713007376376 1.6300891038392877 0.0020763275495053564 -1.3723978908435988 0.13213360482797554
1.736748726462794 0.6581444548920431 -1.6025406922199128 -1.2218990267485106 0.8719421582983273 0.002412475626314845 -0.37178068479568815 -0.6492939355994588
0.2442200942185636 -0.33227509515156795 -0.15974422144340344 -0.44158419077683786 -0.7806839032364576 0.6933775277078776 -1.0919922058607774 -1.4752814589227419
-0.4021271760801457 -0.507560740939993 1.8783800816565073 -0.07212962365634774 0.0009440882825359014 -0.028848266468098516 1.6110752493776912 -0.31090542509944413
1.2959617944540227 0.9638734394205597 -0.9001219500727293 -0.7977578972612145 0.9191001616176332 -0.3838744243753401 -0.823219862598387 0.25870974465027496
-0.1356180377490516 -0.4650425699516248 0.2766761266470206 -0.8129721746421625 1.5193482373255394 -0.2213837791627846 -0.41295959954274836 -1.5434801426387588
-0.15715071012192916 0.23184444321414246 0.5413597499541523 0.6075662438375676 1.7558588138059241 0.5436188697287891 -0.3462429443934123 1.523362811656383
-1.2411402484716634 2.155812641454403 2.165720139779316 0.5781043163653595 1.2160755962186798 0.8251945146827339 0.2053056754597634 0.3009356683762867
0.29533342968834264 1.9788093706070613 -0.7524423503860512 0.08082108750548307 0.7832153983051323 0.5211035798632683 1.4039348181399232 -0.3632907496852119
0.6681766612734207 -0.7820753627914832 0.24739229466708865 0.14736564584691494 -0.32810624837547875 -0.02937908584832255 0.4572845060707216 -0.06945426694238606
-0.3200129503921132 -0.6995230557822072 -0.3615687044400581 0.8709540666650528 -0.36218112924643486 -1.330901144723442 -0.7989389930675744 -0.2803468120487349
-0.30759869113247784 1.2145892522834303 0.3888756055740934 0.149136584599007 1.3235575224590157 0.17334272713448273 1.4079323180651968 -0.8349992866043848
0.3432722318349521 -1.208356258217929 -0.8273198512738885 -0.7398099129274355 -0.7152598899457087 -0.9125164364469617 0.9194207539803115 -0.6750347729676585
-0.0498520927408049 -0.487686876671186 -0.4197950209268302 1.119686595756853 -1.658877556922833 1.0580802773096156 -1.3311218641105413 0.6180847073813008
0.052287002151923216 0.8702644393443139 -0.5700075541490988 -0.5769631724794257 -0.8587173079438034 0.8233214654726224 1.2550815676345628 1.140391071563614
0.7111006206136634 -0.3681914869035043 -1.3720128580367188 0.20468644955027898 1.473100219028045 0.8991256514690299 0.06895699623662868 -1.235933376221789
0.9769117973872872 0.7098826100975022 1.0191132055024927 -1.9447801480002544 0.46832642587275314 0.9300304479969704 0.27479935633486874 -1.9159342662281729
